{"class_name": "Model", "keras_version": "2.2.2", "config": {"layers": [{"class_name": "InputLayer", "config": {"dtype": "float32", "batch_input_shape": [null, 224, 224, 3], "name": "input_1", "sparse": false}, "inbound_nodes": [], "name": "input_1"}, {"class_name": "ZeroPadding2D", "config": {"padding": [[3, 3], [3, 3]], "trainable": true, "name": "zero_padding2d_1", "data_format": "channels_last"}, "inbound_nodes": [[["input_1", 0, 0, {}]]], "name": "zero_padding2d_1"}, {"class_name": "Conv2D", "config": {"kernel_constraint": null, "kernel_initializer": {"class_name": "VarianceScaling", "config": {"distribution": "uniform", "scale": 1.0, "seed": null, "mode": "fan_avg"}}, "name": "conv1/conv", "bias_regularizer": null, "bias_constraint": null, "activation": "linear", "trainable": true, "data_format": "channels_last", "padding": "valid", "strides": [2, 2], "dilation_rate": [1, 1], "kernel_regularizer": null, "filters": 64, "bias_initializer": {"class_name": "Zeros", "config": {}}, "use_bias": false, "activity_regularizer": null, "kernel_size": [7, 7]}, "inbound_nodes": [[["zero_padding2d_1", 0, 0, {}]]], "name": "conv1/conv"}, {"class_name": "BatchNormalization", "config": {"beta_constraint": null, "gamma_initializer": {"class_name": "Ones", "config": {}}, "moving_mean_initializer": {"class_name": "Zeros", "config": {}}, "name": "conv1/bn", "epsilon": 1.001e-05, "trainable": true, "moving_variance_initializer": {"class_name": "Ones", "config": {}}, "beta_initializer": {"class_name": "Zeros", "config": {}}, "scale": true, "axis": 3, "gamma_constraint": null, "gamma_regularizer": null, "beta_regularizer": null, "momentum": 0.99, "center": true}, "inbound_nodes": [[["conv1/conv", 0, 0, {}]]], "name": "conv1/bn"}, {"class_name": "Activation", "config": {"activation": "relu", "trainable": true, "name": "conv1/relu"}, "inbound_nodes": [[["conv1/bn", 0, 0, {}]]], "name": "conv1/relu"}, {"class_name": "ZeroPadding2D", "config": {"padding": [[1, 1], [1, 1]], "trainable": true, "name": "zero_padding2d_2", "data_format": "channels_last"}, "inbound_nodes": [[["conv1/relu", 0, 0, {}]]], "name": "zero_padding2d_2"}, {"class_name": "MaxPooling2D", "config": {"name": "pool1", "trainable": true, "data_format": "channels_last", "pool_size": [3, 3], "padding": "valid", "strides": [2, 2]}, "inbound_nodes": [[["zero_padding2d_2", 0, 0, {}]]], "name": "pool1"}, {"class_name": "BatchNormalization", "config": {"beta_constraint": null, "gamma_initializer": {"class_name": "Ones", "config": {}}, "moving_mean_initializer": {"class_name": "Zeros", "config": {}}, "name": "conv2_block1_0_bn", "epsilon": 1.001e-05, "trainable": true, "moving_variance_initializer": {"class_name": "Ones", "config": {}}, "beta_initializer": {"class_name": "Zeros", "config": {}}, "scale": true, "axis": 3, "gamma_constraint": null, "gamma_regularizer": null, "beta_regularizer": null, "momentum": 0.99, "center": true}, "inbound_nodes": [[["pool1", 0, 0, {}]]], "name": "conv2_block1_0_bn"}, {"class_name": "Activation", "config": {"activation": "relu", "trainable": true, "name": "conv2_block1_0_relu"}, "inbound_nodes": [[["conv2_block1_0_bn", 0, 0, {}]]], "name": "conv2_block1_0_relu"}, {"class_name": "Conv2D", "config": {"kernel_constraint": null, "kernel_initializer": {"class_name": "VarianceScaling", "config": {"distribution": "uniform", "scale": 1.0, "seed": null, "mode": "fan_avg"}}, "name": "conv2_block1_1_conv", "bias_regularizer": null, "bias_constraint": null, "activation": "linear", "trainable": true, "data_format": "channels_last", "padding": "valid", "strides": [1, 1], "dilation_rate": [1, 1], "kernel_regularizer": null, "filters": 128, "bias_initializer": {"class_name": "Zeros", "config": {}}, "use_bias": false, "activity_regularizer": null, "kernel_size": [1, 1]}, "inbound_nodes": [[["conv2_block1_0_relu", 0, 0, {}]]], "name": "conv2_block1_1_conv"}, {"class_name": "BatchNormalization", "config": {"beta_constraint": null, "gamma_initializer": {"class_name": "Ones", "config": {}}, "moving_mean_initializer": {"class_name": "Zeros", "config": {}}, "name": "conv2_block1_1_bn", "epsilon": 1.001e-05, "trainable": true, "moving_variance_initializer": {"class_name": "Ones", "config": {}}, "beta_initializer": {"class_name": "Zeros", "config": {}}, "scale": true, "axis": 3, "gamma_constraint": null, "gamma_regularizer": null, "beta_regularizer": null, "momentum": 0.99, "center": true}, "inbound_nodes": [[["conv2_block1_1_conv", 0, 0, {}]]], "name": "conv2_block1_1_bn"}, {"class_name": "Activation", "config": {"activation": "relu", "trainable": true, "name": "conv2_block1_1_relu"}, "inbound_nodes": [[["conv2_block1_1_bn", 0, 0, {}]]], "name": "conv2_block1_1_relu"}, {"class_name": "Conv2D", "config": {"kernel_constraint": null, "kernel_initializer": {"class_name": "VarianceScaling", "config": {"distribution": "uniform", "scale": 1.0, "seed": null, "mode": "fan_avg"}}, "name": "conv2_block1_2_conv", "bias_regularizer": null, "bias_constraint": null, "activation": "linear", "trainable": true, "data_format": "channels_last", "padding": "same", "strides": [1, 1], "dilation_rate": [1, 1], "kernel_regularizer": null, "filters": 32, "bias_initializer": {"class_name": "Zeros", "config": {}}, "use_bias": false, "activity_regularizer": null, "kernel_size": [3, 3]}, "inbound_nodes": [[["conv2_block1_1_relu", 0, 0, {}]]], "name": "conv2_block1_2_conv"}, {"class_name": "Concatenate", "config": {"trainable": true, "name": "conv2_block1_concat", "axis": 3}, "inbound_nodes": [[["pool1", 0, 0, {}], ["conv2_block1_2_conv", 0, 0, {}]]], "name": "conv2_block1_concat"}, {"class_name": "BatchNormalization", "config": {"beta_constraint": null, "gamma_initializer": {"class_name": "Ones", "config": {}}, "moving_mean_initializer": {"class_name": "Zeros", "config": {}}, "name": "conv2_block2_0_bn", "epsilon": 1.001e-05, "trainable": true, "moving_variance_initializer": {"class_name": "Ones", "config": {}}, "beta_initializer": {"class_name": "Zeros", "config": {}}, "scale": true, "axis": 3, "gamma_constraint": null, "gamma_regularizer": null, "beta_regularizer": null, "momentum": 0.99, "center": true}, "inbound_nodes": [[["conv2_block1_concat", 0, 0, {}]]], "name": "conv2_block2_0_bn"}, {"class_name": "Activation", "config": {"activation": "relu", "trainable": true, "name": "conv2_block2_0_relu"}, "inbound_nodes": [[["conv2_block2_0_bn", 0, 0, {}]]], "name": "conv2_block2_0_relu"}, {"class_name": "Conv2D", "config": {"kernel_constraint": null, "kernel_initializer": {"class_name": "VarianceScaling", "config": {"distribution": "uniform", "scale": 1.0, "seed": null, "mode": "fan_avg"}}, "name": "conv2_block2_1_conv", "bias_regularizer": null, "bias_constraint": null, "activation": "linear", "trainable": true, "data_format": "channels_last", "padding": "valid", "strides": [1, 1], "dilation_rate": [1, 1], "kernel_regularizer": null, "filters": 128, "bias_initializer": {"class_name": "Zeros", "config": {}}, "use_bias": false, "activity_regularizer": null, "kernel_size": [1, 1]}, "inbound_nodes": [[["conv2_block2_0_relu", 0, 0, {}]]], "name": "conv2_block2_1_conv"}, {"class_name": "BatchNormalization", "config": {"beta_constraint": null, "gamma_initializer": {"class_name": "Ones", "config": {}}, "moving_mean_initializer": {"class_name": "Zeros", "config": {}}, "name": "conv2_block2_1_bn", "epsilon": 1.001e-05, "trainable": true, "moving_variance_initializer": {"class_name": "Ones", "config": {}}, "beta_initializer": {"class_name": "Zeros", "config": {}}, "scale": true, "axis": 3, "gamma_constraint": null, "gamma_regularizer": null, "beta_regularizer": null, "momentum": 0.99, "center": true}, "inbound_nodes": [[["conv2_block2_1_conv", 0, 0, {}]]], "name": "conv2_block2_1_bn"}, {"class_name": "Activation", "config": {"activation": "relu", "trainable": true, "name": "conv2_block2_1_relu"}, "inbound_nodes": [[["conv2_block2_1_bn", 0, 0, {}]]], "name": "conv2_block2_1_relu"}, {"class_name": "Conv2D", "config": {"kernel_constraint": null, "kernel_initializer": {"class_name": "VarianceScaling", "config": {"distribution": "uniform", "scale": 1.0, "seed": null, "mode": "fan_avg"}}, "name": "conv2_block2_2_conv", "bias_regularizer": null, "bias_constraint": null, "activation": "linear", "trainable": true, "data_format": "channels_last", "padding": "same", "strides": [1, 1], "dilation_rate": [1, 1], "kernel_regularizer": null, "filters": 32, "bias_initializer": {"class_name": "Zeros", "config": {}}, "use_bias": false, "activity_regularizer": null, "kernel_size": [3, 3]}, "inbound_nodes": [[["conv2_block2_1_relu", 0, 0, {}]]], "name": "conv2_block2_2_conv"}, {"class_name": "Concatenate", "config": {"trainable": true, "name": "conv2_block2_concat", "axis": 3}, "inbound_nodes": [[["conv2_block1_concat", 0, 0, {}], ["conv2_block2_2_conv", 0, 0, {}]]], "name": "conv2_block2_concat"}, {"class_name": "BatchNormalization", "config": {"beta_constraint": null, "gamma_initializer": {"class_name": "Ones", "config": {}}, "moving_mean_initializer": {"class_name": "Zeros", "config": {}}, "name": "conv2_block3_0_bn", "epsilon": 1.001e-05, "trainable": true, "moving_variance_initializer": {"class_name": "Ones", "config": {}}, "beta_initializer": {"class_name": "Zeros", "config": {}}, "scale": true, "axis": 3, "gamma_constraint": null, "gamma_regularizer": null, "beta_regularizer": null, "momentum": 0.99, "center": true}, "inbound_nodes": [[["conv2_block2_concat", 0, 0, {}]]], "name": "conv2_block3_0_bn"}, {"class_name": "Activation", "config": {"activation": "relu", "trainable": true, "name": "conv2_block3_0_relu"}, "inbound_nodes": [[["conv2_block3_0_bn", 0, 0, {}]]], "name": "conv2_block3_0_relu"}, {"class_name": "Conv2D", "config": {"kernel_constraint": null, "kernel_initializer": {"class_name": "VarianceScaling", "config": {"distribution": "uniform", "scale": 1.0, "seed": null, "mode": "fan_avg"}}, "name": "conv2_block3_1_conv", "bias_regularizer": null, "bias_constraint": null, "activation": "linear", "trainable": true, "data_format": "channels_last", "padding": "valid", "strides": [1, 1], "dilation_rate": [1, 1], "kernel_regularizer": null, "filters": 128, "bias_initializer": {"class_name": "Zeros", "config": {}}, "use_bias": false, "activity_regularizer": null, "kernel_size": [1, 1]}, "inbound_nodes": [[["conv2_block3_0_relu", 0, 0, {}]]], "name": "conv2_block3_1_conv"}, {"class_name": "BatchNormalization", "config": {"beta_constraint": null, "gamma_initializer": {"class_name": "Ones", "config": {}}, "moving_mean_initializer": {"class_name": "Zeros", "config": {}}, "name": "conv2_block3_1_bn", "epsilon": 1.001e-05, "trainable": true, "moving_variance_initializer": {"class_name": "Ones", "config": {}}, "beta_initializer": {"class_name": "Zeros", "config": {}}, "scale": true, "axis": 3, "gamma_constraint": null, "gamma_regularizer": null, "beta_regularizer": null, "momentum": 0.99, "center": true}, "inbound_nodes": [[["conv2_block3_1_conv", 0, 0, {}]]], "name": "conv2_block3_1_bn"}, {"class_name": "Activation", "config": {"activation": "relu", "trainable": true, "name": "conv2_block3_1_relu"}, "inbound_nodes": [[["conv2_block3_1_bn", 0, 0, {}]]], "name": "conv2_block3_1_relu"}, {"class_name": "Conv2D", "config": {"kernel_constraint": null, "kernel_initializer": {"class_name": "VarianceScaling", "config": {"distribution": "uniform", "scale": 1.0, "seed": null, "mode": "fan_avg"}}, "name": "conv2_block3_2_conv", "bias_regularizer": null, "bias_constraint": null, "activation": "linear", "trainable": true, "data_format": "channels_last", "padding": "same", "strides": [1, 1], "dilation_rate": [1, 1], "kernel_regularizer": null, "filters": 32, "bias_initializer": {"class_name": "Zeros", "config": {}}, "use_bias": false, "activity_regularizer": null, "kernel_size": [3, 3]}, "inbound_nodes": [[["conv2_block3_1_relu", 0, 0, {}]]], "name": "conv2_block3_2_conv"}, {"class_name": "Concatenate", "config": {"trainable": true, "name": "conv2_block3_concat", "axis": 3}, "inbound_nodes": [[["conv2_block2_concat", 0, 0, {}], ["conv2_block3_2_conv", 0, 0, {}]]], "name": "conv2_block3_concat"}, {"class_name": "BatchNormalization", "config": {"beta_constraint": null, "gamma_initializer": {"class_name": "Ones", "config": {}}, "moving_mean_initializer": {"class_name": "Zeros", "config": {}}, "name": "conv2_block4_0_bn", "epsilon": 1.001e-05, "trainable": true, "moving_variance_initializer": {"class_name": "Ones", "config": {}}, "beta_initializer": {"class_name": "Zeros", "config": {}}, "scale": true, "axis": 3, "gamma_constraint": null, "gamma_regularizer": null, "beta_regularizer": null, "momentum": 0.99, "center": true}, "inbound_nodes": [[["conv2_block3_concat", 0, 0, {}]]], "name": "conv2_block4_0_bn"}, {"class_name": "Activation", "config": {"activation": "relu", "trainable": true, "name": "conv2_block4_0_relu"}, "inbound_nodes": [[["conv2_block4_0_bn", 0, 0, {}]]], "name": "conv2_block4_0_relu"}, {"class_name": "Conv2D", "config": {"kernel_constraint": null, "kernel_initializer": {"class_name": "VarianceScaling", "config": {"distribution": "uniform", "scale": 1.0, "seed": null, "mode": "fan_avg"}}, "name": "conv2_block4_1_conv", "bias_regularizer": null, "bias_constraint": null, "activation": "linear", "trainable": true, "data_format": "channels_last", "padding": "valid", "strides": [1, 1], "dilation_rate": [1, 1], "kernel_regularizer": null, "filters": 128, "bias_initializer": {"class_name": "Zeros", "config": {}}, "use_bias": false, "activity_regularizer": null, "kernel_size": [1, 1]}, "inbound_nodes": [[["conv2_block4_0_relu", 0, 0, {}]]], "name": "conv2_block4_1_conv"}, {"class_name": "BatchNormalization", "config": {"beta_constraint": null, "gamma_initializer": {"class_name": "Ones", "config": {}}, "moving_mean_initializer": {"class_name": "Zeros", "config": {}}, "name": "conv2_block4_1_bn", "epsilon": 1.001e-05, "trainable": true, "moving_variance_initializer": {"class_name": "Ones", "config": {}}, "beta_initializer": {"class_name": "Zeros", "config": {}}, "scale": true, "axis": 3, "gamma_constraint": null, "gamma_regularizer": null, "beta_regularizer": null, "momentum": 0.99, "center": true}, "inbound_nodes": [[["conv2_block4_1_conv", 0, 0, {}]]], "name": "conv2_block4_1_bn"}, {"class_name": "Activation", "config": {"activation": "relu", "trainable": true, "name": "conv2_block4_1_relu"}, "inbound_nodes": [[["conv2_block4_1_bn", 0, 0, {}]]], "name": "conv2_block4_1_relu"}, {"class_name": "Conv2D", "config": {"kernel_constraint": null, "kernel_initializer": {"class_name": "VarianceScaling", "config": {"distribution": "uniform", "scale": 1.0, "seed": null, "mode": "fan_avg"}}, "name": "conv2_block4_2_conv", "bias_regularizer": null, "bias_constraint": null, "activation": "linear", "trainable": true, "data_format": "channels_last", "padding": "same", "strides": [1, 1], "dilation_rate": [1, 1], "kernel_regularizer": null, "filters": 32, "bias_initializer": {"class_name": "Zeros", "config": {}}, "use_bias": false, "activity_regularizer": null, "kernel_size": [3, 3]}, "inbound_nodes": [[["conv2_block4_1_relu", 0, 0, {}]]], "name": "conv2_block4_2_conv"}, {"class_name": "Concatenate", "config": {"trainable": true, "name": "conv2_block4_concat", "axis": 3}, "inbound_nodes": [[["conv2_block3_concat", 0, 0, {}], ["conv2_block4_2_conv", 0, 0, {}]]], "name": "conv2_block4_concat"}, {"class_name": "BatchNormalization", "config": {"beta_constraint": null, "gamma_initializer": {"class_name": "Ones", "config": {}}, "moving_mean_initializer": {"class_name": "Zeros", "config": {}}, "name": "conv2_block5_0_bn", "epsilon": 1.001e-05, "trainable": true, "moving_variance_initializer": {"class_name": "Ones", "config": {}}, "beta_initializer": {"class_name": "Zeros", "config": {}}, "scale": true, "axis": 3, "gamma_constraint": null, "gamma_regularizer": null, "beta_regularizer": null, "momentum": 0.99, "center": true}, "inbound_nodes": [[["conv2_block4_concat", 0, 0, {}]]], "name": "conv2_block5_0_bn"}, {"class_name": "Activation", "config": {"activation": "relu", "trainable": true, "name": "conv2_block5_0_relu"}, "inbound_nodes": [[["conv2_block5_0_bn", 0, 0, {}]]], "name": "conv2_block5_0_relu"}, {"class_name": "Conv2D", "config": {"kernel_constraint": null, "kernel_initializer": {"class_name": "VarianceScaling", "config": {"distribution": "uniform", "scale": 1.0, "seed": null, "mode": "fan_avg"}}, "name": "conv2_block5_1_conv", "bias_regularizer": null, "bias_constraint": null, "activation": "linear", "trainable": true, "data_format": "channels_last", "padding": "valid", "strides": [1, 1], "dilation_rate": [1, 1], "kernel_regularizer": null, "filters": 128, "bias_initializer": {"class_name": "Zeros", "config": {}}, "use_bias": false, "activity_regularizer": null, "kernel_size": [1, 1]}, "inbound_nodes": [[["conv2_block5_0_relu", 0, 0, {}]]], "name": "conv2_block5_1_conv"}, {"class_name": "BatchNormalization", "config": {"beta_constraint": null, "gamma_initializer": {"class_name": "Ones", "config": {}}, "moving_mean_initializer": {"class_name": "Zeros", "config": {}}, "name": "conv2_block5_1_bn", "epsilon": 1.001e-05, "trainable": true, "moving_variance_initializer": {"class_name": "Ones", "config": {}}, "beta_initializer": {"class_name": "Zeros", "config": {}}, "scale": true, "axis": 3, "gamma_constraint": null, "gamma_regularizer": null, "beta_regularizer": null, "momentum": 0.99, "center": true}, "inbound_nodes": [[["conv2_block5_1_conv", 0, 0, {}]]], "name": "conv2_block5_1_bn"}, {"class_name": "Activation", "config": {"activation": "relu", "trainable": true, "name": "conv2_block5_1_relu"}, "inbound_nodes": [[["conv2_block5_1_bn", 0, 0, {}]]], "name": "conv2_block5_1_relu"}, {"class_name": "Conv2D", "config": {"kernel_constraint": null, "kernel_initializer": {"class_name": "VarianceScaling", "config": {"distribution": "uniform", "scale": 1.0, "seed": null, "mode": "fan_avg"}}, "name": "conv2_block5_2_conv", "bias_regularizer": null, "bias_constraint": null, "activation": "linear", "trainable": true, "data_format": "channels_last", "padding": "same", "strides": [1, 1], "dilation_rate": [1, 1], "kernel_regularizer": null, "filters": 32, "bias_initializer": {"class_name": "Zeros", "config": {}}, "use_bias": false, "activity_regularizer": null, "kernel_size": [3, 3]}, "inbound_nodes": [[["conv2_block5_1_relu", 0, 0, {}]]], "name": "conv2_block5_2_conv"}, {"class_name": "Concatenate", "config": {"trainable": true, "name": "conv2_block5_concat", "axis": 3}, "inbound_nodes": [[["conv2_block4_concat", 0, 0, {}], ["conv2_block5_2_conv", 0, 0, {}]]], "name": "conv2_block5_concat"}, {"class_name": "BatchNormalization", "config": {"beta_constraint": null, "gamma_initializer": {"class_name": "Ones", "config": {}}, "moving_mean_initializer": {"class_name": "Zeros", "config": {}}, "name": "conv2_block6_0_bn", "epsilon": 1.001e-05, "trainable": true, "moving_variance_initializer": {"class_name": "Ones", "config": {}}, "beta_initializer": {"class_name": "Zeros", "config": {}}, "scale": true, "axis": 3, "gamma_constraint": null, "gamma_regularizer": null, "beta_regularizer": null, "momentum": 0.99, "center": true}, "inbound_nodes": [[["conv2_block5_concat", 0, 0, {}]]], "name": "conv2_block6_0_bn"}, {"class_name": "Activation", "config": {"activation": "relu", "trainable": true, "name": "conv2_block6_0_relu"}, "inbound_nodes": [[["conv2_block6_0_bn", 0, 0, {}]]], "name": "conv2_block6_0_relu"}, {"class_name": "Conv2D", "config": {"kernel_constraint": null, "kernel_initializer": {"class_name": "VarianceScaling", "config": {"distribution": "uniform", "scale": 1.0, "seed": null, "mode": "fan_avg"}}, "name": "conv2_block6_1_conv", "bias_regularizer": null, "bias_constraint": null, "activation": "linear", "trainable": true, "data_format": "channels_last", "padding": "valid", "strides": [1, 1], "dilation_rate": [1, 1], "kernel_regularizer": null, "filters": 128, "bias_initializer": {"class_name": "Zeros", "config": {}}, "use_bias": false, "activity_regularizer": null, "kernel_size": [1, 1]}, "inbound_nodes": [[["conv2_block6_0_relu", 0, 0, {}]]], "name": "conv2_block6_1_conv"}, {"class_name": "BatchNormalization", "config": {"beta_constraint": null, "gamma_initializer": {"class_name": "Ones", "config": {}}, "moving_mean_initializer": {"class_name": "Zeros", "config": {}}, "name": "conv2_block6_1_bn", "epsilon": 1.001e-05, "trainable": true, "moving_variance_initializer": {"class_name": "Ones", "config": {}}, "beta_initializer": {"class_name": "Zeros", "config": {}}, "scale": true, "axis": 3, "gamma_constraint": null, "gamma_regularizer": null, "beta_regularizer": null, "momentum": 0.99, "center": true}, "inbound_nodes": [[["conv2_block6_1_conv", 0, 0, {}]]], "name": "conv2_block6_1_bn"}, {"class_name": "Activation", "config": {"activation": "relu", "trainable": true, "name": "conv2_block6_1_relu"}, "inbound_nodes": [[["conv2_block6_1_bn", 0, 0, {}]]], "name": "conv2_block6_1_relu"}, {"class_name": "Conv2D", "config": {"kernel_constraint": null, "kernel_initializer": {"class_name": "VarianceScaling", "config": {"distribution": "uniform", "scale": 1.0, "seed": null, "mode": "fan_avg"}}, "name": "conv2_block6_2_conv", "bias_regularizer": null, "bias_constraint": null, "activation": "linear", "trainable": true, "data_format": "channels_last", "padding": "same", "strides": [1, 1], "dilation_rate": [1, 1], "kernel_regularizer": null, "filters": 32, "bias_initializer": {"class_name": "Zeros", "config": {}}, "use_bias": false, "activity_regularizer": null, "kernel_size": [3, 3]}, "inbound_nodes": [[["conv2_block6_1_relu", 0, 0, {}]]], "name": "conv2_block6_2_conv"}, {"class_name": "Concatenate", "config": {"trainable": true, "name": "conv2_block6_concat", "axis": 3}, "inbound_nodes": [[["conv2_block5_concat", 0, 0, {}], ["conv2_block6_2_conv", 0, 0, {}]]], "name": "conv2_block6_concat"}, {"class_name": "BatchNormalization", "config": {"beta_constraint": null, "gamma_initializer": {"class_name": "Ones", "config": {}}, "moving_mean_initializer": {"class_name": "Zeros", "config": {}}, "name": "pool2_bn", "epsilon": 1.001e-05, "trainable": true, "moving_variance_initializer": {"class_name": "Ones", "config": {}}, "beta_initializer": {"class_name": "Zeros", "config": {}}, "scale": true, "axis": 3, "gamma_constraint": null, "gamma_regularizer": null, "beta_regularizer": null, "momentum": 0.99, "center": true}, "inbound_nodes": [[["conv2_block6_concat", 0, 0, {}]]], "name": "pool2_bn"}, {"class_name": "Activation", "config": {"activation": "relu", "trainable": true, "name": "pool2_relu"}, "inbound_nodes": [[["pool2_bn", 0, 0, {}]]], "name": "pool2_relu"}, {"class_name": "Conv2D", "config": {"kernel_constraint": null, "kernel_initializer": {"class_name": "VarianceScaling", "config": {"distribution": "uniform", "scale": 1.0, "seed": null, "mode": "fan_avg"}}, "name": "pool2_conv", "bias_regularizer": null, "bias_constraint": null, "activation": "linear", "trainable": true, "data_format": "channels_last", "padding": "valid", "strides": [1, 1], "dilation_rate": [1, 1], "kernel_regularizer": null, "filters": 128, "bias_initializer": {"class_name": "Zeros", "config": {}}, "use_bias": false, "activity_regularizer": null, "kernel_size": [1, 1]}, "inbound_nodes": [[["pool2_relu", 0, 0, {}]]], "name": "pool2_conv"}, {"class_name": "AveragePooling2D", "config": {"name": "pool2_pool", "trainable": true, "data_format": "channels_last", "pool_size": [2, 2], "padding": "valid", "strides": [2, 2]}, "inbound_nodes": [[["pool2_conv", 0, 0, {}]]], "name": "pool2_pool"}, {"class_name": "BatchNormalization", "config": {"beta_constraint": null, "gamma_initializer": {"class_name": "Ones", "config": {}}, "moving_mean_initializer": {"class_name": "Zeros", "config": {}}, "name": "conv3_block1_0_bn", "epsilon": 1.001e-05, "trainable": true, "moving_variance_initializer": {"class_name": "Ones", "config": {}}, "beta_initializer": {"class_name": "Zeros", "config": {}}, "scale": true, "axis": 3, "gamma_constraint": null, "gamma_regularizer": null, "beta_regularizer": null, "momentum": 0.99, "center": true}, "inbound_nodes": [[["pool2_pool", 0, 0, {}]]], "name": "conv3_block1_0_bn"}, {"class_name": "Activation", "config": {"activation": "relu", "trainable": true, "name": "conv3_block1_0_relu"}, "inbound_nodes": [[["conv3_block1_0_bn", 0, 0, {}]]], "name": "conv3_block1_0_relu"}, {"class_name": "Conv2D", "config": {"kernel_constraint": null, "kernel_initializer": {"class_name": "VarianceScaling", "config": {"distribution": "uniform", "scale": 1.0, "seed": null, "mode": "fan_avg"}}, "name": "conv3_block1_1_conv", "bias_regularizer": null, "bias_constraint": null, "activation": "linear", "trainable": true, "data_format": "channels_last", "padding": "valid", "strides": [1, 1], "dilation_rate": [1, 1], "kernel_regularizer": null, "filters": 128, "bias_initializer": {"class_name": "Zeros", "config": {}}, "use_bias": false, "activity_regularizer": null, "kernel_size": [1, 1]}, "inbound_nodes": [[["conv3_block1_0_relu", 0, 0, {}]]], "name": "conv3_block1_1_conv"}, {"class_name": "BatchNormalization", "config": {"beta_constraint": null, "gamma_initializer": {"class_name": "Ones", "config": {}}, "moving_mean_initializer": {"class_name": "Zeros", "config": {}}, "name": "conv3_block1_1_bn", "epsilon": 1.001e-05, "trainable": true, "moving_variance_initializer": {"class_name": "Ones", "config": {}}, "beta_initializer": {"class_name": "Zeros", "config": {}}, "scale": true, "axis": 3, "gamma_constraint": null, "gamma_regularizer": null, "beta_regularizer": null, "momentum": 0.99, "center": true}, "inbound_nodes": [[["conv3_block1_1_conv", 0, 0, {}]]], "name": "conv3_block1_1_bn"}, {"class_name": "Activation", "config": {"activation": "relu", "trainable": true, "name": "conv3_block1_1_relu"}, "inbound_nodes": [[["conv3_block1_1_bn", 0, 0, {}]]], "name": "conv3_block1_1_relu"}, {"class_name": "Conv2D", "config": {"kernel_constraint": null, "kernel_initializer": {"class_name": "VarianceScaling", "config": {"distribution": "uniform", "scale": 1.0, "seed": null, "mode": "fan_avg"}}, "name": "conv3_block1_2_conv", "bias_regularizer": null, "bias_constraint": null, "activation": "linear", "trainable": true, "data_format": "channels_last", "padding": "same", "strides": [1, 1], "dilation_rate": [1, 1], "kernel_regularizer": null, "filters": 32, "bias_initializer": {"class_name": "Zeros", "config": {}}, "use_bias": false, "activity_regularizer": null, "kernel_size": [3, 3]}, "inbound_nodes": [[["conv3_block1_1_relu", 0, 0, {}]]], "name": "conv3_block1_2_conv"}, {"class_name": "Concatenate", "config": {"trainable": true, "name": "conv3_block1_concat", "axis": 3}, "inbound_nodes": [[["pool2_pool", 0, 0, {}], ["conv3_block1_2_conv", 0, 0, {}]]], "name": "conv3_block1_concat"}, {"class_name": "BatchNormalization", "config": {"beta_constraint": null, "gamma_initializer": {"class_name": "Ones", "config": {}}, "moving_mean_initializer": {"class_name": "Zeros", "config": {}}, "name": "conv3_block2_0_bn", "epsilon": 1.001e-05, "trainable": true, "moving_variance_initializer": {"class_name": "Ones", "config": {}}, "beta_initializer": {"class_name": "Zeros", "config": {}}, "scale": true, "axis": 3, "gamma_constraint": null, "gamma_regularizer": null, "beta_regularizer": null, "momentum": 0.99, "center": true}, "inbound_nodes": [[["conv3_block1_concat", 0, 0, {}]]], "name": "conv3_block2_0_bn"}, {"class_name": "Activation", "config": {"activation": "relu", "trainable": true, "name": "conv3_block2_0_relu"}, "inbound_nodes": [[["conv3_block2_0_bn", 0, 0, {}]]], "name": "conv3_block2_0_relu"}, {"class_name": "Conv2D", "config": {"kernel_constraint": null, "kernel_initializer": {"class_name": "VarianceScaling", "config": {"distribution": "uniform", "scale": 1.0, "seed": null, "mode": "fan_avg"}}, "name": "conv3_block2_1_conv", "bias_regularizer": null, "bias_constraint": null, "activation": "linear", "trainable": true, "data_format": "channels_last", "padding": "valid", "strides": [1, 1], "dilation_rate": [1, 1], "kernel_regularizer": null, "filters": 128, "bias_initializer": {"class_name": "Zeros", "config": {}}, "use_bias": false, "activity_regularizer": null, "kernel_size": [1, 1]}, "inbound_nodes": [[["conv3_block2_0_relu", 0, 0, {}]]], "name": "conv3_block2_1_conv"}, {"class_name": "BatchNormalization", "config": {"beta_constraint": null, "gamma_initializer": {"class_name": "Ones", "config": {}}, "moving_mean_initializer": {"class_name": "Zeros", "config": {}}, "name": "conv3_block2_1_bn", "epsilon": 1.001e-05, "trainable": true, "moving_variance_initializer": {"class_name": "Ones", "config": {}}, "beta_initializer": {"class_name": "Zeros", "config": {}}, "scale": true, "axis": 3, "gamma_constraint": null, "gamma_regularizer": null, "beta_regularizer": null, "momentum": 0.99, "center": true}, "inbound_nodes": [[["conv3_block2_1_conv", 0, 0, {}]]], "name": "conv3_block2_1_bn"}, {"class_name": "Activation", "config": {"activation": "relu", "trainable": true, "name": "conv3_block2_1_relu"}, "inbound_nodes": [[["conv3_block2_1_bn", 0, 0, {}]]], "name": "conv3_block2_1_relu"}, {"class_name": "Conv2D", "config": {"kernel_constraint": null, "kernel_initializer": {"class_name": "VarianceScaling", "config": {"distribution": "uniform", "scale": 1.0, "seed": null, "mode": "fan_avg"}}, "name": "conv3_block2_2_conv", "bias_regularizer": null, "bias_constraint": null, "activation": "linear", "trainable": true, "data_format": "channels_last", "padding": "same", "strides": [1, 1], "dilation_rate": [1, 1], "kernel_regularizer": null, "filters": 32, "bias_initializer": {"class_name": "Zeros", "config": {}}, "use_bias": false, "activity_regularizer": null, "kernel_size": [3, 3]}, "inbound_nodes": [[["conv3_block2_1_relu", 0, 0, {}]]], "name": "conv3_block2_2_conv"}, {"class_name": "Concatenate", "config": {"trainable": true, "name": "conv3_block2_concat", "axis": 3}, "inbound_nodes": [[["conv3_block1_concat", 0, 0, {}], ["conv3_block2_2_conv", 0, 0, {}]]], "name": "conv3_block2_concat"}, {"class_name": "BatchNormalization", "config": {"beta_constraint": null, "gamma_initializer": {"class_name": "Ones", "config": {}}, "moving_mean_initializer": {"class_name": "Zeros", "config": {}}, "name": "conv3_block3_0_bn", "epsilon": 1.001e-05, "trainable": true, "moving_variance_initializer": {"class_name": "Ones", "config": {}}, "beta_initializer": {"class_name": "Zeros", "config": {}}, "scale": true, "axis": 3, "gamma_constraint": null, "gamma_regularizer": null, "beta_regularizer": null, "momentum": 0.99, "center": true}, "inbound_nodes": [[["conv3_block2_concat", 0, 0, {}]]], "name": "conv3_block3_0_bn"}, {"class_name": "Activation", "config": {"activation": "relu", "trainable": true, "name": "conv3_block3_0_relu"}, "inbound_nodes": [[["conv3_block3_0_bn", 0, 0, {}]]], "name": "conv3_block3_0_relu"}, {"class_name": "Conv2D", "config": {"kernel_constraint": null, "kernel_initializer": {"class_name": "VarianceScaling", "config": {"distribution": "uniform", "scale": 1.0, "seed": null, "mode": "fan_avg"}}, "name": "conv3_block3_1_conv", "bias_regularizer": null, "bias_constraint": null, "activation": "linear", "trainable": true, "data_format": "channels_last", "padding": "valid", "strides": [1, 1], "dilation_rate": [1, 1], "kernel_regularizer": null, "filters": 128, "bias_initializer": {"class_name": "Zeros", "config": {}}, "use_bias": false, "activity_regularizer": null, "kernel_size": [1, 1]}, "inbound_nodes": [[["conv3_block3_0_relu", 0, 0, {}]]], "name": "conv3_block3_1_conv"}, {"class_name": "BatchNormalization", "config": {"beta_constraint": null, "gamma_initializer": {"class_name": "Ones", "config": {}}, "moving_mean_initializer": {"class_name": "Zeros", "config": {}}, "name": "conv3_block3_1_bn", "epsilon": 1.001e-05, "trainable": true, "moving_variance_initializer": {"class_name": "Ones", "config": {}}, "beta_initializer": {"class_name": "Zeros", "config": {}}, "scale": true, "axis": 3, "gamma_constraint": null, "gamma_regularizer": null, "beta_regularizer": null, "momentum": 0.99, "center": true}, "inbound_nodes": [[["conv3_block3_1_conv", 0, 0, {}]]], "name": "conv3_block3_1_bn"}, {"class_name": "Activation", "config": {"activation": "relu", "trainable": true, "name": "conv3_block3_1_relu"}, "inbound_nodes": [[["conv3_block3_1_bn", 0, 0, {}]]], "name": "conv3_block3_1_relu"}, {"class_name": "Conv2D", "config": {"kernel_constraint": null, "kernel_initializer": {"class_name": "VarianceScaling", "config": {"distribution": "uniform", "scale": 1.0, "seed": null, "mode": "fan_avg"}}, "name": "conv3_block3_2_conv", "bias_regularizer": null, "bias_constraint": null, "activation": "linear", "trainable": true, "data_format": "channels_last", "padding": "same", "strides": [1, 1], "dilation_rate": [1, 1], "kernel_regularizer": null, "filters": 32, "bias_initializer": {"class_name": "Zeros", "config": {}}, "use_bias": false, "activity_regularizer": null, "kernel_size": [3, 3]}, "inbound_nodes": [[["conv3_block3_1_relu", 0, 0, {}]]], "name": "conv3_block3_2_conv"}, {"class_name": "Concatenate", "config": {"trainable": true, "name": "conv3_block3_concat", "axis": 3}, "inbound_nodes": [[["conv3_block2_concat", 0, 0, {}], ["conv3_block3_2_conv", 0, 0, {}]]], "name": "conv3_block3_concat"}, {"class_name": "BatchNormalization", "config": {"beta_constraint": null, "gamma_initializer": {"class_name": "Ones", "config": {}}, "moving_mean_initializer": {"class_name": "Zeros", "config": {}}, "name": "conv3_block4_0_bn", "epsilon": 1.001e-05, "trainable": true, "moving_variance_initializer": {"class_name": "Ones", "config": {}}, "beta_initializer": {"class_name": "Zeros", "config": {}}, "scale": true, "axis": 3, "gamma_constraint": null, "gamma_regularizer": null, "beta_regularizer": null, "momentum": 0.99, "center": true}, "inbound_nodes": [[["conv3_block3_concat", 0, 0, {}]]], "name": "conv3_block4_0_bn"}, {"class_name": "Activation", "config": {"activation": "relu", "trainable": true, "name": "conv3_block4_0_relu"}, "inbound_nodes": [[["conv3_block4_0_bn", 0, 0, {}]]], "name": "conv3_block4_0_relu"}, {"class_name": "Conv2D", "config": {"kernel_constraint": null, "kernel_initializer": {"class_name": "VarianceScaling", "config": {"distribution": "uniform", "scale": 1.0, "seed": null, "mode": "fan_avg"}}, "name": "conv3_block4_1_conv", "bias_regularizer": null, "bias_constraint": null, "activation": "linear", "trainable": true, "data_format": "channels_last", "padding": "valid", "strides": [1, 1], "dilation_rate": [1, 1], "kernel_regularizer": null, "filters": 128, "bias_initializer": {"class_name": "Zeros", "config": {}}, "use_bias": false, "activity_regularizer": null, "kernel_size": [1, 1]}, "inbound_nodes": [[["conv3_block4_0_relu", 0, 0, {}]]], "name": "conv3_block4_1_conv"}, {"class_name": "BatchNormalization", "config": {"beta_constraint": null, "gamma_initializer": {"class_name": "Ones", "config": {}}, "moving_mean_initializer": {"class_name": "Zeros", "config": {}}, "name": "conv3_block4_1_bn", "epsilon": 1.001e-05, "trainable": true, "moving_variance_initializer": {"class_name": "Ones", "config": {}}, "beta_initializer": {"class_name": "Zeros", "config": {}}, "scale": true, "axis": 3, "gamma_constraint": null, "gamma_regularizer": null, "beta_regularizer": null, "momentum": 0.99, "center": true}, "inbound_nodes": [[["conv3_block4_1_conv", 0, 0, {}]]], "name": "conv3_block4_1_bn"}, {"class_name": "Activation", "config": {"activation": "relu", "trainable": true, "name": "conv3_block4_1_relu"}, "inbound_nodes": [[["conv3_block4_1_bn", 0, 0, {}]]], "name": "conv3_block4_1_relu"}, {"class_name": "Conv2D", "config": {"kernel_constraint": null, "kernel_initializer": {"class_name": "VarianceScaling", "config": {"distribution": "uniform", "scale": 1.0, "seed": null, "mode": "fan_avg"}}, "name": "conv3_block4_2_conv", "bias_regularizer": null, "bias_constraint": null, "activation": "linear", "trainable": true, "data_format": "channels_last", "padding": "same", "strides": [1, 1], "dilation_rate": [1, 1], "kernel_regularizer": null, "filters": 32, "bias_initializer": {"class_name": "Zeros", "config": {}}, "use_bias": false, "activity_regularizer": null, "kernel_size": [3, 3]}, "inbound_nodes": [[["conv3_block4_1_relu", 0, 0, {}]]], "name": "conv3_block4_2_conv"}, {"class_name": "Concatenate", "config": {"trainable": true, "name": "conv3_block4_concat", "axis": 3}, "inbound_nodes": [[["conv3_block3_concat", 0, 0, {}], ["conv3_block4_2_conv", 0, 0, {}]]], "name": "conv3_block4_concat"}, {"class_name": "BatchNormalization", "config": {"beta_constraint": null, "gamma_initializer": {"class_name": "Ones", "config": {}}, "moving_mean_initializer": {"class_name": "Zeros", "config": {}}, "name": "conv3_block5_0_bn", "epsilon": 1.001e-05, "trainable": true, "moving_variance_initializer": {"class_name": "Ones", "config": {}}, "beta_initializer": {"class_name": "Zeros", "config": {}}, "scale": true, "axis": 3, "gamma_constraint": null, "gamma_regularizer": null, "beta_regularizer": null, "momentum": 0.99, "center": true}, "inbound_nodes": [[["conv3_block4_concat", 0, 0, {}]]], "name": "conv3_block5_0_bn"}, {"class_name": "Activation", "config": {"activation": "relu", "trainable": true, "name": "conv3_block5_0_relu"}, "inbound_nodes": [[["conv3_block5_0_bn", 0, 0, {}]]], "name": "conv3_block5_0_relu"}, {"class_name": "Conv2D", "config": {"kernel_constraint": null, "kernel_initializer": {"class_name": "VarianceScaling", "config": {"distribution": "uniform", "scale": 1.0, "seed": null, "mode": "fan_avg"}}, "name": "conv3_block5_1_conv", "bias_regularizer": null, "bias_constraint": null, "activation": "linear", "trainable": true, "data_format": "channels_last", "padding": "valid", "strides": [1, 1], "dilation_rate": [1, 1], "kernel_regularizer": null, "filters": 128, "bias_initializer": {"class_name": "Zeros", "config": {}}, "use_bias": false, "activity_regularizer": null, "kernel_size": [1, 1]}, "inbound_nodes": [[["conv3_block5_0_relu", 0, 0, {}]]], "name": "conv3_block5_1_conv"}, {"class_name": "BatchNormalization", "config": {"beta_constraint": null, "gamma_initializer": {"class_name": "Ones", "config": {}}, "moving_mean_initializer": {"class_name": "Zeros", "config": {}}, "name": "conv3_block5_1_bn", "epsilon": 1.001e-05, "trainable": true, "moving_variance_initializer": {"class_name": "Ones", "config": {}}, "beta_initializer": {"class_name": "Zeros", "config": {}}, "scale": true, "axis": 3, "gamma_constraint": null, "gamma_regularizer": null, "beta_regularizer": null, "momentum": 0.99, "center": true}, "inbound_nodes": [[["conv3_block5_1_conv", 0, 0, {}]]], "name": "conv3_block5_1_bn"}, {"class_name": "Activation", "config": {"activation": "relu", "trainable": true, "name": "conv3_block5_1_relu"}, "inbound_nodes": [[["conv3_block5_1_bn", 0, 0, {}]]], "name": "conv3_block5_1_relu"}, {"class_name": "Conv2D", "config": {"kernel_constraint": null, "kernel_initializer": {"class_name": "VarianceScaling", "config": {"distribution": "uniform", "scale": 1.0, "seed": null, "mode": "fan_avg"}}, "name": "conv3_block5_2_conv", "bias_regularizer": null, "bias_constraint": null, "activation": "linear", "trainable": true, "data_format": "channels_last", "padding": "same", "strides": [1, 1], "dilation_rate": [1, 1], "kernel_regularizer": null, "filters": 32, "bias_initializer": {"class_name": "Zeros", "config": {}}, "use_bias": false, "activity_regularizer": null, "kernel_size": [3, 3]}, "inbound_nodes": [[["conv3_block5_1_relu", 0, 0, {}]]], "name": "conv3_block5_2_conv"}, {"class_name": "Concatenate", "config": {"trainable": true, "name": "conv3_block5_concat", "axis": 3}, "inbound_nodes": [[["conv3_block4_concat", 0, 0, {}], ["conv3_block5_2_conv", 0, 0, {}]]], "name": "conv3_block5_concat"}, {"class_name": "BatchNormalization", "config": {"beta_constraint": null, "gamma_initializer": {"class_name": "Ones", "config": {}}, "moving_mean_initializer": {"class_name": "Zeros", "config": {}}, "name": "conv3_block6_0_bn", "epsilon": 1.001e-05, "trainable": true, "moving_variance_initializer": {"class_name": "Ones", "config": {}}, "beta_initializer": {"class_name": "Zeros", "config": {}}, "scale": true, "axis": 3, "gamma_constraint": null, "gamma_regularizer": null, "beta_regularizer": null, "momentum": 0.99, "center": true}, "inbound_nodes": [[["conv3_block5_concat", 0, 0, {}]]], "name": "conv3_block6_0_bn"}, {"class_name": "Activation", "config": {"activation": "relu", "trainable": true, "name": "conv3_block6_0_relu"}, "inbound_nodes": [[["conv3_block6_0_bn", 0, 0, {}]]], "name": "conv3_block6_0_relu"}, {"class_name": "Conv2D", "config": {"kernel_constraint": null, "kernel_initializer": {"class_name": "VarianceScaling", "config": {"distribution": "uniform", "scale": 1.0, "seed": null, "mode": "fan_avg"}}, "name": "conv3_block6_1_conv", "bias_regularizer": null, "bias_constraint": null, "activation": "linear", "trainable": true, "data_format": "channels_last", "padding": "valid", "strides": [1, 1], "dilation_rate": [1, 1], "kernel_regularizer": null, "filters": 128, "bias_initializer": {"class_name": "Zeros", "config": {}}, "use_bias": false, "activity_regularizer": null, "kernel_size": [1, 1]}, "inbound_nodes": [[["conv3_block6_0_relu", 0, 0, {}]]], "name": "conv3_block6_1_conv"}, {"class_name": "BatchNormalization", "config": {"beta_constraint": null, "gamma_initializer": {"class_name": "Ones", "config": {}}, "moving_mean_initializer": {"class_name": "Zeros", "config": {}}, "name": "conv3_block6_1_bn", "epsilon": 1.001e-05, "trainable": true, "moving_variance_initializer": {"class_name": "Ones", "config": {}}, "beta_initializer": {"class_name": "Zeros", "config": {}}, "scale": true, "axis": 3, "gamma_constraint": null, "gamma_regularizer": null, "beta_regularizer": null, "momentum": 0.99, "center": true}, "inbound_nodes": [[["conv3_block6_1_conv", 0, 0, {}]]], "name": "conv3_block6_1_bn"}, {"class_name": "Activation", "config": {"activation": "relu", "trainable": true, "name": "conv3_block6_1_relu"}, "inbound_nodes": [[["conv3_block6_1_bn", 0, 0, {}]]], "name": "conv3_block6_1_relu"}, {"class_name": "Conv2D", "config": {"kernel_constraint": null, "kernel_initializer": {"class_name": "VarianceScaling", "config": {"distribution": "uniform", "scale": 1.0, "seed": null, "mode": "fan_avg"}}, "name": "conv3_block6_2_conv", "bias_regularizer": null, "bias_constraint": null, "activation": "linear", "trainable": true, "data_format": "channels_last", "padding": "same", "strides": [1, 1], "dilation_rate": [1, 1], "kernel_regularizer": null, "filters": 32, "bias_initializer": {"class_name": "Zeros", "config": {}}, "use_bias": false, "activity_regularizer": null, "kernel_size": [3, 3]}, "inbound_nodes": [[["conv3_block6_1_relu", 0, 0, {}]]], "name": "conv3_block6_2_conv"}, {"class_name": "Concatenate", "config": {"trainable": true, "name": "conv3_block6_concat", "axis": 3}, "inbound_nodes": [[["conv3_block5_concat", 0, 0, {}], ["conv3_block6_2_conv", 0, 0, {}]]], "name": "conv3_block6_concat"}, {"class_name": "BatchNormalization", "config": {"beta_constraint": null, "gamma_initializer": {"class_name": "Ones", "config": {}}, "moving_mean_initializer": {"class_name": "Zeros", "config": {}}, "name": "conv3_block7_0_bn", "epsilon": 1.001e-05, "trainable": true, "moving_variance_initializer": {"class_name": "Ones", "config": {}}, "beta_initializer": {"class_name": "Zeros", "config": {}}, "scale": true, "axis": 3, "gamma_constraint": null, "gamma_regularizer": null, "beta_regularizer": null, "momentum": 0.99, "center": true}, "inbound_nodes": [[["conv3_block6_concat", 0, 0, {}]]], "name": "conv3_block7_0_bn"}, {"class_name": "Activation", "config": {"activation": "relu", "trainable": true, "name": "conv3_block7_0_relu"}, "inbound_nodes": [[["conv3_block7_0_bn", 0, 0, {}]]], "name": "conv3_block7_0_relu"}, {"class_name": "Conv2D", "config": {"kernel_constraint": null, "kernel_initializer": {"class_name": "VarianceScaling", "config": {"distribution": "uniform", "scale": 1.0, "seed": null, "mode": "fan_avg"}}, "name": "conv3_block7_1_conv", "bias_regularizer": null, "bias_constraint": null, "activation": "linear", "trainable": true, "data_format": "channels_last", "padding": "valid", "strides": [1, 1], "dilation_rate": [1, 1], "kernel_regularizer": null, "filters": 128, "bias_initializer": {"class_name": "Zeros", "config": {}}, "use_bias": false, "activity_regularizer": null, "kernel_size": [1, 1]}, "inbound_nodes": [[["conv3_block7_0_relu", 0, 0, {}]]], "name": "conv3_block7_1_conv"}, {"class_name": "BatchNormalization", "config": {"beta_constraint": null, "gamma_initializer": {"class_name": "Ones", "config": {}}, "moving_mean_initializer": {"class_name": "Zeros", "config": {}}, "name": "conv3_block7_1_bn", "epsilon": 1.001e-05, "trainable": true, "moving_variance_initializer": {"class_name": "Ones", "config": {}}, "beta_initializer": {"class_name": "Zeros", "config": {}}, "scale": true, "axis": 3, "gamma_constraint": null, "gamma_regularizer": null, "beta_regularizer": null, "momentum": 0.99, "center": true}, "inbound_nodes": [[["conv3_block7_1_conv", 0, 0, {}]]], "name": "conv3_block7_1_bn"}, {"class_name": "Activation", "config": {"activation": "relu", "trainable": true, "name": "conv3_block7_1_relu"}, "inbound_nodes": [[["conv3_block7_1_bn", 0, 0, {}]]], "name": "conv3_block7_1_relu"}, {"class_name": "Conv2D", "config": {"kernel_constraint": null, "kernel_initializer": {"class_name": "VarianceScaling", "config": {"distribution": "uniform", "scale": 1.0, "seed": null, "mode": "fan_avg"}}, "name": "conv3_block7_2_conv", "bias_regularizer": null, "bias_constraint": null, "activation": "linear", "trainable": true, "data_format": "channels_last", "padding": "same", "strides": [1, 1], "dilation_rate": [1, 1], "kernel_regularizer": null, "filters": 32, "bias_initializer": {"class_name": "Zeros", "config": {}}, "use_bias": false, "activity_regularizer": null, "kernel_size": [3, 3]}, "inbound_nodes": [[["conv3_block7_1_relu", 0, 0, {}]]], "name": "conv3_block7_2_conv"}, {"class_name": "Concatenate", "config": {"trainable": true, "name": "conv3_block7_concat", "axis": 3}, "inbound_nodes": [[["conv3_block6_concat", 0, 0, {}], ["conv3_block7_2_conv", 0, 0, {}]]], "name": "conv3_block7_concat"}, {"class_name": "BatchNormalization", "config": {"beta_constraint": null, "gamma_initializer": {"class_name": "Ones", "config": {}}, "moving_mean_initializer": {"class_name": "Zeros", "config": {}}, "name": "conv3_block8_0_bn", "epsilon": 1.001e-05, "trainable": true, "moving_variance_initializer": {"class_name": "Ones", "config": {}}, "beta_initializer": {"class_name": "Zeros", "config": {}}, "scale": true, "axis": 3, "gamma_constraint": null, "gamma_regularizer": null, "beta_regularizer": null, "momentum": 0.99, "center": true}, "inbound_nodes": [[["conv3_block7_concat", 0, 0, {}]]], "name": "conv3_block8_0_bn"}, {"class_name": "Activation", "config": {"activation": "relu", "trainable": true, "name": "conv3_block8_0_relu"}, "inbound_nodes": [[["conv3_block8_0_bn", 0, 0, {}]]], "name": "conv3_block8_0_relu"}, {"class_name": "Conv2D", "config": {"kernel_constraint": null, "kernel_initializer": {"class_name": "VarianceScaling", "config": {"distribution": "uniform", "scale": 1.0, "seed": null, "mode": "fan_avg"}}, "name": "conv3_block8_1_conv", "bias_regularizer": null, "bias_constraint": null, "activation": "linear", "trainable": true, "data_format": "channels_last", "padding": "valid", "strides": [1, 1], "dilation_rate": [1, 1], "kernel_regularizer": null, "filters": 128, "bias_initializer": {"class_name": "Zeros", "config": {}}, "use_bias": false, "activity_regularizer": null, "kernel_size": [1, 1]}, "inbound_nodes": [[["conv3_block8_0_relu", 0, 0, {}]]], "name": "conv3_block8_1_conv"}, {"class_name": "BatchNormalization", "config": {"beta_constraint": null, "gamma_initializer": {"class_name": "Ones", "config": {}}, "moving_mean_initializer": {"class_name": "Zeros", "config": {}}, "name": "conv3_block8_1_bn", "epsilon": 1.001e-05, "trainable": true, "moving_variance_initializer": {"class_name": "Ones", "config": {}}, "beta_initializer": {"class_name": "Zeros", "config": {}}, "scale": true, "axis": 3, "gamma_constraint": null, "gamma_regularizer": null, "beta_regularizer": null, "momentum": 0.99, "center": true}, "inbound_nodes": [[["conv3_block8_1_conv", 0, 0, {}]]], "name": "conv3_block8_1_bn"}, {"class_name": "Activation", "config": {"activation": "relu", "trainable": true, "name": "conv3_block8_1_relu"}, "inbound_nodes": [[["conv3_block8_1_bn", 0, 0, {}]]], "name": "conv3_block8_1_relu"}, {"class_name": "Conv2D", "config": {"kernel_constraint": null, "kernel_initializer": {"class_name": "VarianceScaling", "config": {"distribution": "uniform", "scale": 1.0, "seed": null, "mode": "fan_avg"}}, "name": "conv3_block8_2_conv", "bias_regularizer": null, "bias_constraint": null, "activation": "linear", "trainable": true, "data_format": "channels_last", "padding": "same", "strides": [1, 1], "dilation_rate": [1, 1], "kernel_regularizer": null, "filters": 32, "bias_initializer": {"class_name": "Zeros", "config": {}}, "use_bias": false, "activity_regularizer": null, "kernel_size": [3, 3]}, "inbound_nodes": [[["conv3_block8_1_relu", 0, 0, {}]]], "name": "conv3_block8_2_conv"}, {"class_name": "Concatenate", "config": {"trainable": true, "name": "conv3_block8_concat", "axis": 3}, "inbound_nodes": [[["conv3_block7_concat", 0, 0, {}], ["conv3_block8_2_conv", 0, 0, {}]]], "name": "conv3_block8_concat"}, {"class_name": "BatchNormalization", "config": {"beta_constraint": null, "gamma_initializer": {"class_name": "Ones", "config": {}}, "moving_mean_initializer": {"class_name": "Zeros", "config": {}}, "name": "conv3_block9_0_bn", "epsilon": 1.001e-05, "trainable": true, "moving_variance_initializer": {"class_name": "Ones", "config": {}}, "beta_initializer": {"class_name": "Zeros", "config": {}}, "scale": true, "axis": 3, "gamma_constraint": null, "gamma_regularizer": null, "beta_regularizer": null, "momentum": 0.99, "center": true}, "inbound_nodes": [[["conv3_block8_concat", 0, 0, {}]]], "name": "conv3_block9_0_bn"}, {"class_name": "Activation", "config": {"activation": "relu", "trainable": true, "name": "conv3_block9_0_relu"}, "inbound_nodes": [[["conv3_block9_0_bn", 0, 0, {}]]], "name": "conv3_block9_0_relu"}, {"class_name": "Conv2D", "config": {"kernel_constraint": null, "kernel_initializer": {"class_name": "VarianceScaling", "config": {"distribution": "uniform", "scale": 1.0, "seed": null, "mode": "fan_avg"}}, "name": "conv3_block9_1_conv", "bias_regularizer": null, "bias_constraint": null, "activation": "linear", "trainable": true, "data_format": "channels_last", "padding": "valid", "strides": [1, 1], "dilation_rate": [1, 1], "kernel_regularizer": null, "filters": 128, "bias_initializer": {"class_name": "Zeros", "config": {}}, "use_bias": false, "activity_regularizer": null, "kernel_size": [1, 1]}, "inbound_nodes": [[["conv3_block9_0_relu", 0, 0, {}]]], "name": "conv3_block9_1_conv"}, {"class_name": "BatchNormalization", "config": {"beta_constraint": null, "gamma_initializer": {"class_name": "Ones", "config": {}}, "moving_mean_initializer": {"class_name": "Zeros", "config": {}}, "name": "conv3_block9_1_bn", "epsilon": 1.001e-05, "trainable": true, "moving_variance_initializer": {"class_name": "Ones", "config": {}}, "beta_initializer": {"class_name": "Zeros", "config": {}}, "scale": true, "axis": 3, "gamma_constraint": null, "gamma_regularizer": null, "beta_regularizer": null, "momentum": 0.99, "center": true}, "inbound_nodes": [[["conv3_block9_1_conv", 0, 0, {}]]], "name": "conv3_block9_1_bn"}, {"class_name": "Activation", "config": {"activation": "relu", "trainable": true, "name": "conv3_block9_1_relu"}, "inbound_nodes": [[["conv3_block9_1_bn", 0, 0, {}]]], "name": "conv3_block9_1_relu"}, {"class_name": "Conv2D", "config": {"kernel_constraint": null, "kernel_initializer": {"class_name": "VarianceScaling", "config": {"distribution": "uniform", "scale": 1.0, "seed": null, "mode": "fan_avg"}}, "name": "conv3_block9_2_conv", "bias_regularizer": null, "bias_constraint": null, "activation": "linear", "trainable": true, "data_format": "channels_last", "padding": "same", "strides": [1, 1], "dilation_rate": [1, 1], "kernel_regularizer": null, "filters": 32, "bias_initializer": {"class_name": "Zeros", "config": {}}, "use_bias": false, "activity_regularizer": null, "kernel_size": [3, 3]}, "inbound_nodes": [[["conv3_block9_1_relu", 0, 0, {}]]], "name": "conv3_block9_2_conv"}, {"class_name": "Concatenate", "config": {"trainable": true, "name": "conv3_block9_concat", "axis": 3}, "inbound_nodes": [[["conv3_block8_concat", 0, 0, {}], ["conv3_block9_2_conv", 0, 0, {}]]], "name": "conv3_block9_concat"}, {"class_name": "BatchNormalization", "config": {"beta_constraint": null, "gamma_initializer": {"class_name": "Ones", "config": {}}, "moving_mean_initializer": {"class_name": "Zeros", "config": {}}, "name": "conv3_block10_0_bn", "epsilon": 1.001e-05, "trainable": true, "moving_variance_initializer": {"class_name": "Ones", "config": {}}, "beta_initializer": {"class_name": "Zeros", "config": {}}, "scale": true, "axis": 3, "gamma_constraint": null, "gamma_regularizer": null, "beta_regularizer": null, "momentum": 0.99, "center": true}, "inbound_nodes": [[["conv3_block9_concat", 0, 0, {}]]], "name": "conv3_block10_0_bn"}, {"class_name": "Activation", "config": {"activation": "relu", "trainable": true, "name": "conv3_block10_0_relu"}, "inbound_nodes": [[["conv3_block10_0_bn", 0, 0, {}]]], "name": "conv3_block10_0_relu"}, {"class_name": "Conv2D", "config": {"kernel_constraint": null, "kernel_initializer": {"class_name": "VarianceScaling", "config": {"distribution": "uniform", "scale": 1.0, "seed": null, "mode": "fan_avg"}}, "name": "conv3_block10_1_conv", "bias_regularizer": null, "bias_constraint": null, "activation": "linear", "trainable": true, "data_format": "channels_last", "padding": "valid", "strides": [1, 1], "dilation_rate": [1, 1], "kernel_regularizer": null, "filters": 128, "bias_initializer": {"class_name": "Zeros", "config": {}}, "use_bias": false, "activity_regularizer": null, "kernel_size": [1, 1]}, "inbound_nodes": [[["conv3_block10_0_relu", 0, 0, {}]]], "name": "conv3_block10_1_conv"}, {"class_name": "BatchNormalization", "config": {"beta_constraint": null, "gamma_initializer": {"class_name": "Ones", "config": {}}, "moving_mean_initializer": {"class_name": "Zeros", "config": {}}, "name": "conv3_block10_1_bn", "epsilon": 1.001e-05, "trainable": true, "moving_variance_initializer": {"class_name": "Ones", "config": {}}, "beta_initializer": {"class_name": "Zeros", "config": {}}, "scale": true, "axis": 3, "gamma_constraint": null, "gamma_regularizer": null, "beta_regularizer": null, "momentum": 0.99, "center": true}, "inbound_nodes": [[["conv3_block10_1_conv", 0, 0, {}]]], "name": "conv3_block10_1_bn"}, {"class_name": "Activation", "config": {"activation": "relu", "trainable": true, "name": "conv3_block10_1_relu"}, "inbound_nodes": [[["conv3_block10_1_bn", 0, 0, {}]]], "name": "conv3_block10_1_relu"}, {"class_name": "Conv2D", "config": {"kernel_constraint": null, "kernel_initializer": {"class_name": "VarianceScaling", "config": {"distribution": "uniform", "scale": 1.0, "seed": null, "mode": "fan_avg"}}, "name": "conv3_block10_2_conv", "bias_regularizer": null, "bias_constraint": null, "activation": "linear", "trainable": true, "data_format": "channels_last", "padding": "same", "strides": [1, 1], "dilation_rate": [1, 1], "kernel_regularizer": null, "filters": 32, "bias_initializer": {"class_name": "Zeros", "config": {}}, "use_bias": false, "activity_regularizer": null, "kernel_size": [3, 3]}, "inbound_nodes": [[["conv3_block10_1_relu", 0, 0, {}]]], "name": "conv3_block10_2_conv"}, {"class_name": "Concatenate", "config": {"trainable": true, "name": "conv3_block10_concat", "axis": 3}, "inbound_nodes": [[["conv3_block9_concat", 0, 0, {}], ["conv3_block10_2_conv", 0, 0, {}]]], "name": "conv3_block10_concat"}, {"class_name": "BatchNormalization", "config": {"beta_constraint": null, "gamma_initializer": {"class_name": "Ones", "config": {}}, "moving_mean_initializer": {"class_name": "Zeros", "config": {}}, "name": "conv3_block11_0_bn", "epsilon": 1.001e-05, "trainable": true, "moving_variance_initializer": {"class_name": "Ones", "config": {}}, "beta_initializer": {"class_name": "Zeros", "config": {}}, "scale": true, "axis": 3, "gamma_constraint": null, "gamma_regularizer": null, "beta_regularizer": null, "momentum": 0.99, "center": true}, "inbound_nodes": [[["conv3_block10_concat", 0, 0, {}]]], "name": "conv3_block11_0_bn"}, {"class_name": "Activation", "config": {"activation": "relu", "trainable": true, "name": "conv3_block11_0_relu"}, "inbound_nodes": [[["conv3_block11_0_bn", 0, 0, {}]]], "name": "conv3_block11_0_relu"}, {"class_name": "Conv2D", "config": {"kernel_constraint": null, "kernel_initializer": {"class_name": "VarianceScaling", "config": {"distribution": "uniform", "scale": 1.0, "seed": null, "mode": "fan_avg"}}, "name": "conv3_block11_1_conv", "bias_regularizer": null, "bias_constraint": null, "activation": "linear", "trainable": true, "data_format": "channels_last", "padding": "valid", "strides": [1, 1], "dilation_rate": [1, 1], "kernel_regularizer": null, "filters": 128, "bias_initializer": {"class_name": "Zeros", "config": {}}, "use_bias": false, "activity_regularizer": null, "kernel_size": [1, 1]}, "inbound_nodes": [[["conv3_block11_0_relu", 0, 0, {}]]], "name": "conv3_block11_1_conv"}, {"class_name": "BatchNormalization", "config": {"beta_constraint": null, "gamma_initializer": {"class_name": "Ones", "config": {}}, "moving_mean_initializer": {"class_name": "Zeros", "config": {}}, "name": "conv3_block11_1_bn", "epsilon": 1.001e-05, "trainable": true, "moving_variance_initializer": {"class_name": "Ones", "config": {}}, "beta_initializer": {"class_name": "Zeros", "config": {}}, "scale": true, "axis": 3, "gamma_constraint": null, "gamma_regularizer": null, "beta_regularizer": null, "momentum": 0.99, "center": true}, "inbound_nodes": [[["conv3_block11_1_conv", 0, 0, {}]]], "name": "conv3_block11_1_bn"}, {"class_name": "Activation", "config": {"activation": "relu", "trainable": true, "name": "conv3_block11_1_relu"}, "inbound_nodes": [[["conv3_block11_1_bn", 0, 0, {}]]], "name": "conv3_block11_1_relu"}, {"class_name": "Conv2D", "config": {"kernel_constraint": null, "kernel_initializer": {"class_name": "VarianceScaling", "config": {"distribution": "uniform", "scale": 1.0, "seed": null, "mode": "fan_avg"}}, "name": "conv3_block11_2_conv", "bias_regularizer": null, "bias_constraint": null, "activation": "linear", "trainable": true, "data_format": "channels_last", "padding": "same", "strides": [1, 1], "dilation_rate": [1, 1], "kernel_regularizer": null, "filters": 32, "bias_initializer": {"class_name": "Zeros", "config": {}}, "use_bias": false, "activity_regularizer": null, "kernel_size": [3, 3]}, "inbound_nodes": [[["conv3_block11_1_relu", 0, 0, {}]]], "name": "conv3_block11_2_conv"}, {"class_name": "Concatenate", "config": {"trainable": true, "name": "conv3_block11_concat", "axis": 3}, "inbound_nodes": [[["conv3_block10_concat", 0, 0, {}], ["conv3_block11_2_conv", 0, 0, {}]]], "name": "conv3_block11_concat"}, {"class_name": "BatchNormalization", "config": {"beta_constraint": null, "gamma_initializer": {"class_name": "Ones", "config": {}}, "moving_mean_initializer": {"class_name": "Zeros", "config": {}}, "name": "conv3_block12_0_bn", "epsilon": 1.001e-05, "trainable": true, "moving_variance_initializer": {"class_name": "Ones", "config": {}}, "beta_initializer": {"class_name": "Zeros", "config": {}}, "scale": true, "axis": 3, "gamma_constraint": null, "gamma_regularizer": null, "beta_regularizer": null, "momentum": 0.99, "center": true}, "inbound_nodes": [[["conv3_block11_concat", 0, 0, {}]]], "name": "conv3_block12_0_bn"}, {"class_name": "Activation", "config": {"activation": "relu", "trainable": true, "name": "conv3_block12_0_relu"}, "inbound_nodes": [[["conv3_block12_0_bn", 0, 0, {}]]], "name": "conv3_block12_0_relu"}, {"class_name": "Conv2D", "config": {"kernel_constraint": null, "kernel_initializer": {"class_name": "VarianceScaling", "config": {"distribution": "uniform", "scale": 1.0, "seed": null, "mode": "fan_avg"}}, "name": "conv3_block12_1_conv", "bias_regularizer": null, "bias_constraint": null, "activation": "linear", "trainable": true, "data_format": "channels_last", "padding": "valid", "strides": [1, 1], "dilation_rate": [1, 1], "kernel_regularizer": null, "filters": 128, "bias_initializer": {"class_name": "Zeros", "config": {}}, "use_bias": false, "activity_regularizer": null, "kernel_size": [1, 1]}, "inbound_nodes": [[["conv3_block12_0_relu", 0, 0, {}]]], "name": "conv3_block12_1_conv"}, {"class_name": "BatchNormalization", "config": {"beta_constraint": null, "gamma_initializer": {"class_name": "Ones", "config": {}}, "moving_mean_initializer": {"class_name": "Zeros", "config": {}}, "name": "conv3_block12_1_bn", "epsilon": 1.001e-05, "trainable": true, "moving_variance_initializer": {"class_name": "Ones", "config": {}}, "beta_initializer": {"class_name": "Zeros", "config": {}}, "scale": true, "axis": 3, "gamma_constraint": null, "gamma_regularizer": null, "beta_regularizer": null, "momentum": 0.99, "center": true}, "inbound_nodes": [[["conv3_block12_1_conv", 0, 0, {}]]], "name": "conv3_block12_1_bn"}, {"class_name": "Activation", "config": {"activation": "relu", "trainable": true, "name": "conv3_block12_1_relu"}, "inbound_nodes": [[["conv3_block12_1_bn", 0, 0, {}]]], "name": "conv3_block12_1_relu"}, {"class_name": "Conv2D", "config": {"kernel_constraint": null, "kernel_initializer": {"class_name": "VarianceScaling", "config": {"distribution": "uniform", "scale": 1.0, "seed": null, "mode": "fan_avg"}}, "name": "conv3_block12_2_conv", "bias_regularizer": null, "bias_constraint": null, "activation": "linear", "trainable": true, "data_format": "channels_last", "padding": "same", "strides": [1, 1], "dilation_rate": [1, 1], "kernel_regularizer": null, "filters": 32, "bias_initializer": {"class_name": "Zeros", "config": {}}, "use_bias": false, "activity_regularizer": null, "kernel_size": [3, 3]}, "inbound_nodes": [[["conv3_block12_1_relu", 0, 0, {}]]], "name": "conv3_block12_2_conv"}, {"class_name": "Concatenate", "config": {"trainable": true, "name": "conv3_block12_concat", "axis": 3}, "inbound_nodes": [[["conv3_block11_concat", 0, 0, {}], ["conv3_block12_2_conv", 0, 0, {}]]], "name": "conv3_block12_concat"}, {"class_name": "BatchNormalization", "config": {"beta_constraint": null, "gamma_initializer": {"class_name": "Ones", "config": {}}, "moving_mean_initializer": {"class_name": "Zeros", "config": {}}, "name": "pool3_bn", "epsilon": 1.001e-05, "trainable": true, "moving_variance_initializer": {"class_name": "Ones", "config": {}}, "beta_initializer": {"class_name": "Zeros", "config": {}}, "scale": true, "axis": 3, "gamma_constraint": null, "gamma_regularizer": null, "beta_regularizer": null, "momentum": 0.99, "center": true}, "inbound_nodes": [[["conv3_block12_concat", 0, 0, {}]]], "name": "pool3_bn"}, {"class_name": "Activation", "config": {"activation": "relu", "trainable": true, "name": "pool3_relu"}, "inbound_nodes": [[["pool3_bn", 0, 0, {}]]], "name": "pool3_relu"}, {"class_name": "Conv2D", "config": {"kernel_constraint": null, "kernel_initializer": {"class_name": "VarianceScaling", "config": {"distribution": "uniform", "scale": 1.0, "seed": null, "mode": "fan_avg"}}, "name": "pool3_conv", "bias_regularizer": null, "bias_constraint": null, "activation": "linear", "trainable": true, "data_format": "channels_last", "padding": "valid", "strides": [1, 1], "dilation_rate": [1, 1], "kernel_regularizer": null, "filters": 256, "bias_initializer": {"class_name": "Zeros", "config": {}}, "use_bias": false, "activity_regularizer": null, "kernel_size": [1, 1]}, "inbound_nodes": [[["pool3_relu", 0, 0, {}]]], "name": "pool3_conv"}, {"class_name": "AveragePooling2D", "config": {"name": "pool3_pool", "trainable": true, "data_format": "channels_last", "pool_size": [2, 2], "padding": "valid", "strides": [2, 2]}, "inbound_nodes": [[["pool3_conv", 0, 0, {}]]], "name": "pool3_pool"}, {"class_name": "BatchNormalization", "config": {"beta_constraint": null, "gamma_initializer": {"class_name": "Ones", "config": {}}, "moving_mean_initializer": {"class_name": "Zeros", "config": {}}, "name": "conv4_block1_0_bn", "epsilon": 1.001e-05, "trainable": true, "moving_variance_initializer": {"class_name": "Ones", "config": {}}, "beta_initializer": {"class_name": "Zeros", "config": {}}, "scale": true, "axis": 3, "gamma_constraint": null, "gamma_regularizer": null, "beta_regularizer": null, "momentum": 0.99, "center": true}, "inbound_nodes": [[["pool3_pool", 0, 0, {}]]], "name": "conv4_block1_0_bn"}, {"class_name": "Activation", "config": {"activation": "relu", "trainable": true, "name": "conv4_block1_0_relu"}, "inbound_nodes": [[["conv4_block1_0_bn", 0, 0, {}]]], "name": "conv4_block1_0_relu"}, {"class_name": "Conv2D", "config": {"kernel_constraint": null, "kernel_initializer": {"class_name": "VarianceScaling", "config": {"distribution": "uniform", "scale": 1.0, "seed": null, "mode": "fan_avg"}}, "name": "conv4_block1_1_conv", "bias_regularizer": null, "bias_constraint": null, "activation": "linear", "trainable": true, "data_format": "channels_last", "padding": "valid", "strides": [1, 1], "dilation_rate": [1, 1], "kernel_regularizer": null, "filters": 128, "bias_initializer": {"class_name": "Zeros", "config": {}}, "use_bias": false, "activity_regularizer": null, "kernel_size": [1, 1]}, "inbound_nodes": [[["conv4_block1_0_relu", 0, 0, {}]]], "name": "conv4_block1_1_conv"}, {"class_name": "BatchNormalization", "config": {"beta_constraint": null, "gamma_initializer": {"class_name": "Ones", "config": {}}, "moving_mean_initializer": {"class_name": "Zeros", "config": {}}, "name": "conv4_block1_1_bn", "epsilon": 1.001e-05, "trainable": true, "moving_variance_initializer": {"class_name": "Ones", "config": {}}, "beta_initializer": {"class_name": "Zeros", "config": {}}, "scale": true, "axis": 3, "gamma_constraint": null, "gamma_regularizer": null, "beta_regularizer": null, "momentum": 0.99, "center": true}, "inbound_nodes": [[["conv4_block1_1_conv", 0, 0, {}]]], "name": "conv4_block1_1_bn"}, {"class_name": "Activation", "config": {"activation": "relu", "trainable": true, "name": "conv4_block1_1_relu"}, "inbound_nodes": [[["conv4_block1_1_bn", 0, 0, {}]]], "name": "conv4_block1_1_relu"}, {"class_name": "Conv2D", "config": {"kernel_constraint": null, "kernel_initializer": {"class_name": "VarianceScaling", "config": {"distribution": "uniform", "scale": 1.0, "seed": null, "mode": "fan_avg"}}, "name": "conv4_block1_2_conv", "bias_regularizer": null, "bias_constraint": null, "activation": "linear", "trainable": true, "data_format": "channels_last", "padding": "same", "strides": [1, 1], "dilation_rate": [1, 1], "kernel_regularizer": null, "filters": 32, "bias_initializer": {"class_name": "Zeros", "config": {}}, "use_bias": false, "activity_regularizer": null, "kernel_size": [3, 3]}, "inbound_nodes": [[["conv4_block1_1_relu", 0, 0, {}]]], "name": "conv4_block1_2_conv"}, {"class_name": "Concatenate", "config": {"trainable": true, "name": "conv4_block1_concat", "axis": 3}, "inbound_nodes": [[["pool3_pool", 0, 0, {}], ["conv4_block1_2_conv", 0, 0, {}]]], "name": "conv4_block1_concat"}, {"class_name": "BatchNormalization", "config": {"beta_constraint": null, "gamma_initializer": {"class_name": "Ones", "config": {}}, "moving_mean_initializer": {"class_name": "Zeros", "config": {}}, "name": "conv4_block2_0_bn", "epsilon": 1.001e-05, "trainable": true, "moving_variance_initializer": {"class_name": "Ones", "config": {}}, "beta_initializer": {"class_name": "Zeros", "config": {}}, "scale": true, "axis": 3, "gamma_constraint": null, "gamma_regularizer": null, "beta_regularizer": null, "momentum": 0.99, "center": true}, "inbound_nodes": [[["conv4_block1_concat", 0, 0, {}]]], "name": "conv4_block2_0_bn"}, {"class_name": "Activation", "config": {"activation": "relu", "trainable": true, "name": "conv4_block2_0_relu"}, "inbound_nodes": [[["conv4_block2_0_bn", 0, 0, {}]]], "name": "conv4_block2_0_relu"}, {"class_name": "Conv2D", "config": {"kernel_constraint": null, "kernel_initializer": {"class_name": "VarianceScaling", "config": {"distribution": "uniform", "scale": 1.0, "seed": null, "mode": "fan_avg"}}, "name": "conv4_block2_1_conv", "bias_regularizer": null, "bias_constraint": null, "activation": "linear", "trainable": true, "data_format": "channels_last", "padding": "valid", "strides": [1, 1], "dilation_rate": [1, 1], "kernel_regularizer": null, "filters": 128, "bias_initializer": {"class_name": "Zeros", "config": {}}, "use_bias": false, "activity_regularizer": null, "kernel_size": [1, 1]}, "inbound_nodes": [[["conv4_block2_0_relu", 0, 0, {}]]], "name": "conv4_block2_1_conv"}, {"class_name": "BatchNormalization", "config": {"beta_constraint": null, "gamma_initializer": {"class_name": "Ones", "config": {}}, "moving_mean_initializer": {"class_name": "Zeros", "config": {}}, "name": "conv4_block2_1_bn", "epsilon": 1.001e-05, "trainable": true, "moving_variance_initializer": {"class_name": "Ones", "config": {}}, "beta_initializer": {"class_name": "Zeros", "config": {}}, "scale": true, "axis": 3, "gamma_constraint": null, "gamma_regularizer": null, "beta_regularizer": null, "momentum": 0.99, "center": true}, "inbound_nodes": [[["conv4_block2_1_conv", 0, 0, {}]]], "name": "conv4_block2_1_bn"}, {"class_name": "Activation", "config": {"activation": "relu", "trainable": true, "name": "conv4_block2_1_relu"}, "inbound_nodes": [[["conv4_block2_1_bn", 0, 0, {}]]], "name": "conv4_block2_1_relu"}, {"class_name": "Conv2D", "config": {"kernel_constraint": null, "kernel_initializer": {"class_name": "VarianceScaling", "config": {"distribution": "uniform", "scale": 1.0, "seed": null, "mode": "fan_avg"}}, "name": "conv4_block2_2_conv", "bias_regularizer": null, "bias_constraint": null, "activation": "linear", "trainable": true, "data_format": "channels_last", "padding": "same", "strides": [1, 1], "dilation_rate": [1, 1], "kernel_regularizer": null, "filters": 32, "bias_initializer": {"class_name": "Zeros", "config": {}}, "use_bias": false, "activity_regularizer": null, "kernel_size": [3, 3]}, "inbound_nodes": [[["conv4_block2_1_relu", 0, 0, {}]]], "name": "conv4_block2_2_conv"}, {"class_name": "Concatenate", "config": {"trainable": true, "name": "conv4_block2_concat", "axis": 3}, "inbound_nodes": [[["conv4_block1_concat", 0, 0, {}], ["conv4_block2_2_conv", 0, 0, {}]]], "name": "conv4_block2_concat"}, {"class_name": "BatchNormalization", "config": {"beta_constraint": null, "gamma_initializer": {"class_name": "Ones", "config": {}}, "moving_mean_initializer": {"class_name": "Zeros", "config": {}}, "name": "conv4_block3_0_bn", "epsilon": 1.001e-05, "trainable": true, "moving_variance_initializer": {"class_name": "Ones", "config": {}}, "beta_initializer": {"class_name": "Zeros", "config": {}}, "scale": true, "axis": 3, "gamma_constraint": null, "gamma_regularizer": null, "beta_regularizer": null, "momentum": 0.99, "center": true}, "inbound_nodes": [[["conv4_block2_concat", 0, 0, {}]]], "name": "conv4_block3_0_bn"}, {"class_name": "Activation", "config": {"activation": "relu", "trainable": true, "name": "conv4_block3_0_relu"}, "inbound_nodes": [[["conv4_block3_0_bn", 0, 0, {}]]], "name": "conv4_block3_0_relu"}, {"class_name": "Conv2D", "config": {"kernel_constraint": null, "kernel_initializer": {"class_name": "VarianceScaling", "config": {"distribution": "uniform", "scale": 1.0, "seed": null, "mode": "fan_avg"}}, "name": "conv4_block3_1_conv", "bias_regularizer": null, "bias_constraint": null, "activation": "linear", "trainable": true, "data_format": "channels_last", "padding": "valid", "strides": [1, 1], "dilation_rate": [1, 1], "kernel_regularizer": null, "filters": 128, "bias_initializer": {"class_name": "Zeros", "config": {}}, "use_bias": false, "activity_regularizer": null, "kernel_size": [1, 1]}, "inbound_nodes": [[["conv4_block3_0_relu", 0, 0, {}]]], "name": "conv4_block3_1_conv"}, {"class_name": "BatchNormalization", "config": {"beta_constraint": null, "gamma_initializer": {"class_name": "Ones", "config": {}}, "moving_mean_initializer": {"class_name": "Zeros", "config": {}}, "name": "conv4_block3_1_bn", "epsilon": 1.001e-05, "trainable": true, "moving_variance_initializer": {"class_name": "Ones", "config": {}}, "beta_initializer": {"class_name": "Zeros", "config": {}}, "scale": true, "axis": 3, "gamma_constraint": null, "gamma_regularizer": null, "beta_regularizer": null, "momentum": 0.99, "center": true}, "inbound_nodes": [[["conv4_block3_1_conv", 0, 0, {}]]], "name": "conv4_block3_1_bn"}, {"class_name": "Activation", "config": {"activation": "relu", "trainable": true, "name": "conv4_block3_1_relu"}, "inbound_nodes": [[["conv4_block3_1_bn", 0, 0, {}]]], "name": "conv4_block3_1_relu"}, {"class_name": "Conv2D", "config": {"kernel_constraint": null, "kernel_initializer": {"class_name": "VarianceScaling", "config": {"distribution": "uniform", "scale": 1.0, "seed": null, "mode": "fan_avg"}}, "name": "conv4_block3_2_conv", "bias_regularizer": null, "bias_constraint": null, "activation": "linear", "trainable": true, "data_format": "channels_last", "padding": "same", "strides": [1, 1], "dilation_rate": [1, 1], "kernel_regularizer": null, "filters": 32, "bias_initializer": {"class_name": "Zeros", "config": {}}, "use_bias": false, "activity_regularizer": null, "kernel_size": [3, 3]}, "inbound_nodes": [[["conv4_block3_1_relu", 0, 0, {}]]], "name": "conv4_block3_2_conv"}, {"class_name": "Concatenate", "config": {"trainable": true, "name": "conv4_block3_concat", "axis": 3}, "inbound_nodes": [[["conv4_block2_concat", 0, 0, {}], ["conv4_block3_2_conv", 0, 0, {}]]], "name": "conv4_block3_concat"}, {"class_name": "BatchNormalization", "config": {"beta_constraint": null, "gamma_initializer": {"class_name": "Ones", "config": {}}, "moving_mean_initializer": {"class_name": "Zeros", "config": {}}, "name": "conv4_block4_0_bn", "epsilon": 1.001e-05, "trainable": true, "moving_variance_initializer": {"class_name": "Ones", "config": {}}, "beta_initializer": {"class_name": "Zeros", "config": {}}, "scale": true, "axis": 3, "gamma_constraint": null, "gamma_regularizer": null, "beta_regularizer": null, "momentum": 0.99, "center": true}, "inbound_nodes": [[["conv4_block3_concat", 0, 0, {}]]], "name": "conv4_block4_0_bn"}, {"class_name": "Activation", "config": {"activation": "relu", "trainable": true, "name": "conv4_block4_0_relu"}, "inbound_nodes": [[["conv4_block4_0_bn", 0, 0, {}]]], "name": "conv4_block4_0_relu"}, {"class_name": "Conv2D", "config": {"kernel_constraint": null, "kernel_initializer": {"class_name": "VarianceScaling", "config": {"distribution": "uniform", "scale": 1.0, "seed": null, "mode": "fan_avg"}}, "name": "conv4_block4_1_conv", "bias_regularizer": null, "bias_constraint": null, "activation": "linear", "trainable": true, "data_format": "channels_last", "padding": "valid", "strides": [1, 1], "dilation_rate": [1, 1], "kernel_regularizer": null, "filters": 128, "bias_initializer": {"class_name": "Zeros", "config": {}}, "use_bias": false, "activity_regularizer": null, "kernel_size": [1, 1]}, "inbound_nodes": [[["conv4_block4_0_relu", 0, 0, {}]]], "name": "conv4_block4_1_conv"}, {"class_name": "BatchNormalization", "config": {"beta_constraint": null, "gamma_initializer": {"class_name": "Ones", "config": {}}, "moving_mean_initializer": {"class_name": "Zeros", "config": {}}, "name": "conv4_block4_1_bn", "epsilon": 1.001e-05, "trainable": true, "moving_variance_initializer": {"class_name": "Ones", "config": {}}, "beta_initializer": {"class_name": "Zeros", "config": {}}, "scale": true, "axis": 3, "gamma_constraint": null, "gamma_regularizer": null, "beta_regularizer": null, "momentum": 0.99, "center": true}, "inbound_nodes": [[["conv4_block4_1_conv", 0, 0, {}]]], "name": "conv4_block4_1_bn"}, {"class_name": "Activation", "config": {"activation": "relu", "trainable": true, "name": "conv4_block4_1_relu"}, "inbound_nodes": [[["conv4_block4_1_bn", 0, 0, {}]]], "name": "conv4_block4_1_relu"}, {"class_name": "Conv2D", "config": {"kernel_constraint": null, "kernel_initializer": {"class_name": "VarianceScaling", "config": {"distribution": "uniform", "scale": 1.0, "seed": null, "mode": "fan_avg"}}, "name": "conv4_block4_2_conv", "bias_regularizer": null, "bias_constraint": null, "activation": "linear", "trainable": true, "data_format": "channels_last", "padding": "same", "strides": [1, 1], "dilation_rate": [1, 1], "kernel_regularizer": null, "filters": 32, "bias_initializer": {"class_name": "Zeros", "config": {}}, "use_bias": false, "activity_regularizer": null, "kernel_size": [3, 3]}, "inbound_nodes": [[["conv4_block4_1_relu", 0, 0, {}]]], "name": "conv4_block4_2_conv"}, {"class_name": "Concatenate", "config": {"trainable": true, "name": "conv4_block4_concat", "axis": 3}, "inbound_nodes": [[["conv4_block3_concat", 0, 0, {}], ["conv4_block4_2_conv", 0, 0, {}]]], "name": "conv4_block4_concat"}, {"class_name": "BatchNormalization", "config": {"beta_constraint": null, "gamma_initializer": {"class_name": "Ones", "config": {}}, "moving_mean_initializer": {"class_name": "Zeros", "config": {}}, "name": "conv4_block5_0_bn", "epsilon": 1.001e-05, "trainable": true, "moving_variance_initializer": {"class_name": "Ones", "config": {}}, "beta_initializer": {"class_name": "Zeros", "config": {}}, "scale": true, "axis": 3, "gamma_constraint": null, "gamma_regularizer": null, "beta_regularizer": null, "momentum": 0.99, "center": true}, "inbound_nodes": [[["conv4_block4_concat", 0, 0, {}]]], "name": "conv4_block5_0_bn"}, {"class_name": "Activation", "config": {"activation": "relu", "trainable": true, "name": "conv4_block5_0_relu"}, "inbound_nodes": [[["conv4_block5_0_bn", 0, 0, {}]]], "name": "conv4_block5_0_relu"}, {"class_name": "Conv2D", "config": {"kernel_constraint": null, "kernel_initializer": {"class_name": "VarianceScaling", "config": {"distribution": "uniform", "scale": 1.0, "seed": null, "mode": "fan_avg"}}, "name": "conv4_block5_1_conv", "bias_regularizer": null, "bias_constraint": null, "activation": "linear", "trainable": true, "data_format": "channels_last", "padding": "valid", "strides": [1, 1], "dilation_rate": [1, 1], "kernel_regularizer": null, "filters": 128, "bias_initializer": {"class_name": "Zeros", "config": {}}, "use_bias": false, "activity_regularizer": null, "kernel_size": [1, 1]}, "inbound_nodes": [[["conv4_block5_0_relu", 0, 0, {}]]], "name": "conv4_block5_1_conv"}, {"class_name": "BatchNormalization", "config": {"beta_constraint": null, "gamma_initializer": {"class_name": "Ones", "config": {}}, "moving_mean_initializer": {"class_name": "Zeros", "config": {}}, "name": "conv4_block5_1_bn", "epsilon": 1.001e-05, "trainable": true, "moving_variance_initializer": {"class_name": "Ones", "config": {}}, "beta_initializer": {"class_name": "Zeros", "config": {}}, "scale": true, "axis": 3, "gamma_constraint": null, "gamma_regularizer": null, "beta_regularizer": null, "momentum": 0.99, "center": true}, "inbound_nodes": [[["conv4_block5_1_conv", 0, 0, {}]]], "name": "conv4_block5_1_bn"}, {"class_name": "Activation", "config": {"activation": "relu", "trainable": true, "name": "conv4_block5_1_relu"}, "inbound_nodes": [[["conv4_block5_1_bn", 0, 0, {}]]], "name": "conv4_block5_1_relu"}, {"class_name": "Conv2D", "config": {"kernel_constraint": null, "kernel_initializer": {"class_name": "VarianceScaling", "config": {"distribution": "uniform", "scale": 1.0, "seed": null, "mode": "fan_avg"}}, "name": "conv4_block5_2_conv", "bias_regularizer": null, "bias_constraint": null, "activation": "linear", "trainable": true, "data_format": "channels_last", "padding": "same", "strides": [1, 1], "dilation_rate": [1, 1], "kernel_regularizer": null, "filters": 32, "bias_initializer": {"class_name": "Zeros", "config": {}}, "use_bias": false, "activity_regularizer": null, "kernel_size": [3, 3]}, "inbound_nodes": [[["conv4_block5_1_relu", 0, 0, {}]]], "name": "conv4_block5_2_conv"}, {"class_name": "Concatenate", "config": {"trainable": true, "name": "conv4_block5_concat", "axis": 3}, "inbound_nodes": [[["conv4_block4_concat", 0, 0, {}], ["conv4_block5_2_conv", 0, 0, {}]]], "name": "conv4_block5_concat"}, {"class_name": "BatchNormalization", "config": {"beta_constraint": null, "gamma_initializer": {"class_name": "Ones", "config": {}}, "moving_mean_initializer": {"class_name": "Zeros", "config": {}}, "name": "conv4_block6_0_bn", "epsilon": 1.001e-05, "trainable": true, "moving_variance_initializer": {"class_name": "Ones", "config": {}}, "beta_initializer": {"class_name": "Zeros", "config": {}}, "scale": true, "axis": 3, "gamma_constraint": null, "gamma_regularizer": null, "beta_regularizer": null, "momentum": 0.99, "center": true}, "inbound_nodes": [[["conv4_block5_concat", 0, 0, {}]]], "name": "conv4_block6_0_bn"}, {"class_name": "Activation", "config": {"activation": "relu", "trainable": true, "name": "conv4_block6_0_relu"}, "inbound_nodes": [[["conv4_block6_0_bn", 0, 0, {}]]], "name": "conv4_block6_0_relu"}, {"class_name": "Conv2D", "config": {"kernel_constraint": null, "kernel_initializer": {"class_name": "VarianceScaling", "config": {"distribution": "uniform", "scale": 1.0, "seed": null, "mode": "fan_avg"}}, "name": "conv4_block6_1_conv", "bias_regularizer": null, "bias_constraint": null, "activation": "linear", "trainable": true, "data_format": "channels_last", "padding": "valid", "strides": [1, 1], "dilation_rate": [1, 1], "kernel_regularizer": null, "filters": 128, "bias_initializer": {"class_name": "Zeros", "config": {}}, "use_bias": false, "activity_regularizer": null, "kernel_size": [1, 1]}, "inbound_nodes": [[["conv4_block6_0_relu", 0, 0, {}]]], "name": "conv4_block6_1_conv"}, {"class_name": "BatchNormalization", "config": {"beta_constraint": null, "gamma_initializer": {"class_name": "Ones", "config": {}}, "moving_mean_initializer": {"class_name": "Zeros", "config": {}}, "name": "conv4_block6_1_bn", "epsilon": 1.001e-05, "trainable": true, "moving_variance_initializer": {"class_name": "Ones", "config": {}}, "beta_initializer": {"class_name": "Zeros", "config": {}}, "scale": true, "axis": 3, "gamma_constraint": null, "gamma_regularizer": null, "beta_regularizer": null, "momentum": 0.99, "center": true}, "inbound_nodes": [[["conv4_block6_1_conv", 0, 0, {}]]], "name": "conv4_block6_1_bn"}, {"class_name": "Activation", "config": {"activation": "relu", "trainable": true, "name": "conv4_block6_1_relu"}, "inbound_nodes": [[["conv4_block6_1_bn", 0, 0, {}]]], "name": "conv4_block6_1_relu"}, {"class_name": "Conv2D", "config": {"kernel_constraint": null, "kernel_initializer": {"class_name": "VarianceScaling", "config": {"distribution": "uniform", "scale": 1.0, "seed": null, "mode": "fan_avg"}}, "name": "conv4_block6_2_conv", "bias_regularizer": null, "bias_constraint": null, "activation": "linear", "trainable": true, "data_format": "channels_last", "padding": "same", "strides": [1, 1], "dilation_rate": [1, 1], "kernel_regularizer": null, "filters": 32, "bias_initializer": {"class_name": "Zeros", "config": {}}, "use_bias": false, "activity_regularizer": null, "kernel_size": [3, 3]}, "inbound_nodes": [[["conv4_block6_1_relu", 0, 0, {}]]], "name": "conv4_block6_2_conv"}, {"class_name": "Concatenate", "config": {"trainable": true, "name": "conv4_block6_concat", "axis": 3}, "inbound_nodes": [[["conv4_block5_concat", 0, 0, {}], ["conv4_block6_2_conv", 0, 0, {}]]], "name": "conv4_block6_concat"}, {"class_name": "BatchNormalization", "config": {"beta_constraint": null, "gamma_initializer": {"class_name": "Ones", "config": {}}, "moving_mean_initializer": {"class_name": "Zeros", "config": {}}, "name": "conv4_block7_0_bn", "epsilon": 1.001e-05, "trainable": true, "moving_variance_initializer": {"class_name": "Ones", "config": {}}, "beta_initializer": {"class_name": "Zeros", "config": {}}, "scale": true, "axis": 3, "gamma_constraint": null, "gamma_regularizer": null, "beta_regularizer": null, "momentum": 0.99, "center": true}, "inbound_nodes": [[["conv4_block6_concat", 0, 0, {}]]], "name": "conv4_block7_0_bn"}, {"class_name": "Activation", "config": {"activation": "relu", "trainable": true, "name": "conv4_block7_0_relu"}, "inbound_nodes": [[["conv4_block7_0_bn", 0, 0, {}]]], "name": "conv4_block7_0_relu"}, {"class_name": "Conv2D", "config": {"kernel_constraint": null, "kernel_initializer": {"class_name": "VarianceScaling", "config": {"distribution": "uniform", "scale": 1.0, "seed": null, "mode": "fan_avg"}}, "name": "conv4_block7_1_conv", "bias_regularizer": null, "bias_constraint": null, "activation": "linear", "trainable": true, "data_format": "channels_last", "padding": "valid", "strides": [1, 1], "dilation_rate": [1, 1], "kernel_regularizer": null, "filters": 128, "bias_initializer": {"class_name": "Zeros", "config": {}}, "use_bias": false, "activity_regularizer": null, "kernel_size": [1, 1]}, "inbound_nodes": [[["conv4_block7_0_relu", 0, 0, {}]]], "name": "conv4_block7_1_conv"}, {"class_name": "BatchNormalization", "config": {"beta_constraint": null, "gamma_initializer": {"class_name": "Ones", "config": {}}, "moving_mean_initializer": {"class_name": "Zeros", "config": {}}, "name": "conv4_block7_1_bn", "epsilon": 1.001e-05, "trainable": true, "moving_variance_initializer": {"class_name": "Ones", "config": {}}, "beta_initializer": {"class_name": "Zeros", "config": {}}, "scale": true, "axis": 3, "gamma_constraint": null, "gamma_regularizer": null, "beta_regularizer": null, "momentum": 0.99, "center": true}, "inbound_nodes": [[["conv4_block7_1_conv", 0, 0, {}]]], "name": "conv4_block7_1_bn"}, {"class_name": "Activation", "config": {"activation": "relu", "trainable": true, "name": "conv4_block7_1_relu"}, "inbound_nodes": [[["conv4_block7_1_bn", 0, 0, {}]]], "name": "conv4_block7_1_relu"}, {"class_name": "Conv2D", "config": {"kernel_constraint": null, "kernel_initializer": {"class_name": "VarianceScaling", "config": {"distribution": "uniform", "scale": 1.0, "seed": null, "mode": "fan_avg"}}, "name": "conv4_block7_2_conv", "bias_regularizer": null, "bias_constraint": null, "activation": "linear", "trainable": true, "data_format": "channels_last", "padding": "same", "strides": [1, 1], "dilation_rate": [1, 1], "kernel_regularizer": null, "filters": 32, "bias_initializer": {"class_name": "Zeros", "config": {}}, "use_bias": false, "activity_regularizer": null, "kernel_size": [3, 3]}, "inbound_nodes": [[["conv4_block7_1_relu", 0, 0, {}]]], "name": "conv4_block7_2_conv"}, {"class_name": "Concatenate", "config": {"trainable": true, "name": "conv4_block7_concat", "axis": 3}, "inbound_nodes": [[["conv4_block6_concat", 0, 0, {}], ["conv4_block7_2_conv", 0, 0, {}]]], "name": "conv4_block7_concat"}, {"class_name": "BatchNormalization", "config": {"beta_constraint": null, "gamma_initializer": {"class_name": "Ones", "config": {}}, "moving_mean_initializer": {"class_name": "Zeros", "config": {}}, "name": "conv4_block8_0_bn", "epsilon": 1.001e-05, "trainable": true, "moving_variance_initializer": {"class_name": "Ones", "config": {}}, "beta_initializer": {"class_name": "Zeros", "config": {}}, "scale": true, "axis": 3, "gamma_constraint": null, "gamma_regularizer": null, "beta_regularizer": null, "momentum": 0.99, "center": true}, "inbound_nodes": [[["conv4_block7_concat", 0, 0, {}]]], "name": "conv4_block8_0_bn"}, {"class_name": "Activation", "config": {"activation": "relu", "trainable": true, "name": "conv4_block8_0_relu"}, "inbound_nodes": [[["conv4_block8_0_bn", 0, 0, {}]]], "name": "conv4_block8_0_relu"}, {"class_name": "Conv2D", "config": {"kernel_constraint": null, "kernel_initializer": {"class_name": "VarianceScaling", "config": {"distribution": "uniform", "scale": 1.0, "seed": null, "mode": "fan_avg"}}, "name": "conv4_block8_1_conv", "bias_regularizer": null, "bias_constraint": null, "activation": "linear", "trainable": true, "data_format": "channels_last", "padding": "valid", "strides": [1, 1], "dilation_rate": [1, 1], "kernel_regularizer": null, "filters": 128, "bias_initializer": {"class_name": "Zeros", "config": {}}, "use_bias": false, "activity_regularizer": null, "kernel_size": [1, 1]}, "inbound_nodes": [[["conv4_block8_0_relu", 0, 0, {}]]], "name": "conv4_block8_1_conv"}, {"class_name": "BatchNormalization", "config": {"beta_constraint": null, "gamma_initializer": {"class_name": "Ones", "config": {}}, "moving_mean_initializer": {"class_name": "Zeros", "config": {}}, "name": "conv4_block8_1_bn", "epsilon": 1.001e-05, "trainable": true, "moving_variance_initializer": {"class_name": "Ones", "config": {}}, "beta_initializer": {"class_name": "Zeros", "config": {}}, "scale": true, "axis": 3, "gamma_constraint": null, "gamma_regularizer": null, "beta_regularizer": null, "momentum": 0.99, "center": true}, "inbound_nodes": [[["conv4_block8_1_conv", 0, 0, {}]]], "name": "conv4_block8_1_bn"}, {"class_name": "Activation", "config": {"activation": "relu", "trainable": true, "name": "conv4_block8_1_relu"}, "inbound_nodes": [[["conv4_block8_1_bn", 0, 0, {}]]], "name": "conv4_block8_1_relu"}, {"class_name": "Conv2D", "config": {"kernel_constraint": null, "kernel_initializer": {"class_name": "VarianceScaling", "config": {"distribution": "uniform", "scale": 1.0, "seed": null, "mode": "fan_avg"}}, "name": "conv4_block8_2_conv", "bias_regularizer": null, "bias_constraint": null, "activation": "linear", "trainable": true, "data_format": "channels_last", "padding": "same", "strides": [1, 1], "dilation_rate": [1, 1], "kernel_regularizer": null, "filters": 32, "bias_initializer": {"class_name": "Zeros", "config": {}}, "use_bias": false, "activity_regularizer": null, "kernel_size": [3, 3]}, "inbound_nodes": [[["conv4_block8_1_relu", 0, 0, {}]]], "name": "conv4_block8_2_conv"}, {"class_name": "Concatenate", "config": {"trainable": true, "name": "conv4_block8_concat", "axis": 3}, "inbound_nodes": [[["conv4_block7_concat", 0, 0, {}], ["conv4_block8_2_conv", 0, 0, {}]]], "name": "conv4_block8_concat"}, {"class_name": "BatchNormalization", "config": {"beta_constraint": null, "gamma_initializer": {"class_name": "Ones", "config": {}}, "moving_mean_initializer": {"class_name": "Zeros", "config": {}}, "name": "conv4_block9_0_bn", "epsilon": 1.001e-05, "trainable": true, "moving_variance_initializer": {"class_name": "Ones", "config": {}}, "beta_initializer": {"class_name": "Zeros", "config": {}}, "scale": true, "axis": 3, "gamma_constraint": null, "gamma_regularizer": null, "beta_regularizer": null, "momentum": 0.99, "center": true}, "inbound_nodes": [[["conv4_block8_concat", 0, 0, {}]]], "name": "conv4_block9_0_bn"}, {"class_name": "Activation", "config": {"activation": "relu", "trainable": true, "name": "conv4_block9_0_relu"}, "inbound_nodes": [[["conv4_block9_0_bn", 0, 0, {}]]], "name": "conv4_block9_0_relu"}, {"class_name": "Conv2D", "config": {"kernel_constraint": null, "kernel_initializer": {"class_name": "VarianceScaling", "config": {"distribution": "uniform", "scale": 1.0, "seed": null, "mode": "fan_avg"}}, "name": "conv4_block9_1_conv", "bias_regularizer": null, "bias_constraint": null, "activation": "linear", "trainable": true, "data_format": "channels_last", "padding": "valid", "strides": [1, 1], "dilation_rate": [1, 1], "kernel_regularizer": null, "filters": 128, "bias_initializer": {"class_name": "Zeros", "config": {}}, "use_bias": false, "activity_regularizer": null, "kernel_size": [1, 1]}, "inbound_nodes": [[["conv4_block9_0_relu", 0, 0, {}]]], "name": "conv4_block9_1_conv"}, {"class_name": "BatchNormalization", "config": {"beta_constraint": null, "gamma_initializer": {"class_name": "Ones", "config": {}}, "moving_mean_initializer": {"class_name": "Zeros", "config": {}}, "name": "conv4_block9_1_bn", "epsilon": 1.001e-05, "trainable": true, "moving_variance_initializer": {"class_name": "Ones", "config": {}}, "beta_initializer": {"class_name": "Zeros", "config": {}}, "scale": true, "axis": 3, "gamma_constraint": null, "gamma_regularizer": null, "beta_regularizer": null, "momentum": 0.99, "center": true}, "inbound_nodes": [[["conv4_block9_1_conv", 0, 0, {}]]], "name": "conv4_block9_1_bn"}, {"class_name": "Activation", "config": {"activation": "relu", "trainable": true, "name": "conv4_block9_1_relu"}, "inbound_nodes": [[["conv4_block9_1_bn", 0, 0, {}]]], "name": "conv4_block9_1_relu"}, {"class_name": "Conv2D", "config": {"kernel_constraint": null, "kernel_initializer": {"class_name": "VarianceScaling", "config": {"distribution": "uniform", "scale": 1.0, "seed": null, "mode": "fan_avg"}}, "name": "conv4_block9_2_conv", "bias_regularizer": null, "bias_constraint": null, "activation": "linear", "trainable": true, "data_format": "channels_last", "padding": "same", "strides": [1, 1], "dilation_rate": [1, 1], "kernel_regularizer": null, "filters": 32, "bias_initializer": {"class_name": "Zeros", "config": {}}, "use_bias": false, "activity_regularizer": null, "kernel_size": [3, 3]}, "inbound_nodes": [[["conv4_block9_1_relu", 0, 0, {}]]], "name": "conv4_block9_2_conv"}, {"class_name": "Concatenate", "config": {"trainable": true, "name": "conv4_block9_concat", "axis": 3}, "inbound_nodes": [[["conv4_block8_concat", 0, 0, {}], ["conv4_block9_2_conv", 0, 0, {}]]], "name": "conv4_block9_concat"}, {"class_name": "BatchNormalization", "config": {"beta_constraint": null, "gamma_initializer": {"class_name": "Ones", "config": {}}, "moving_mean_initializer": {"class_name": "Zeros", "config": {}}, "name": "conv4_block10_0_bn", "epsilon": 1.001e-05, "trainable": true, "moving_variance_initializer": {"class_name": "Ones", "config": {}}, "beta_initializer": {"class_name": "Zeros", "config": {}}, "scale": true, "axis": 3, "gamma_constraint": null, "gamma_regularizer": null, "beta_regularizer": null, "momentum": 0.99, "center": true}, "inbound_nodes": [[["conv4_block9_concat", 0, 0, {}]]], "name": "conv4_block10_0_bn"}, {"class_name": "Activation", "config": {"activation": "relu", "trainable": true, "name": "conv4_block10_0_relu"}, "inbound_nodes": [[["conv4_block10_0_bn", 0, 0, {}]]], "name": "conv4_block10_0_relu"}, {"class_name": "Conv2D", "config": {"kernel_constraint": null, "kernel_initializer": {"class_name": "VarianceScaling", "config": {"distribution": "uniform", "scale": 1.0, "seed": null, "mode": "fan_avg"}}, "name": "conv4_block10_1_conv", "bias_regularizer": null, "bias_constraint": null, "activation": "linear", "trainable": true, "data_format": "channels_last", "padding": "valid", "strides": [1, 1], "dilation_rate": [1, 1], "kernel_regularizer": null, "filters": 128, "bias_initializer": {"class_name": "Zeros", "config": {}}, "use_bias": false, "activity_regularizer": null, "kernel_size": [1, 1]}, "inbound_nodes": [[["conv4_block10_0_relu", 0, 0, {}]]], "name": "conv4_block10_1_conv"}, {"class_name": "BatchNormalization", "config": {"beta_constraint": null, "gamma_initializer": {"class_name": "Ones", "config": {}}, "moving_mean_initializer": {"class_name": "Zeros", "config": {}}, "name": "conv4_block10_1_bn", "epsilon": 1.001e-05, "trainable": true, "moving_variance_initializer": {"class_name": "Ones", "config": {}}, "beta_initializer": {"class_name": "Zeros", "config": {}}, "scale": true, "axis": 3, "gamma_constraint": null, "gamma_regularizer": null, "beta_regularizer": null, "momentum": 0.99, "center": true}, "inbound_nodes": [[["conv4_block10_1_conv", 0, 0, {}]]], "name": "conv4_block10_1_bn"}, {"class_name": "Activation", "config": {"activation": "relu", "trainable": true, "name": "conv4_block10_1_relu"}, "inbound_nodes": [[["conv4_block10_1_bn", 0, 0, {}]]], "name": "conv4_block10_1_relu"}, {"class_name": "Conv2D", "config": {"kernel_constraint": null, "kernel_initializer": {"class_name": "VarianceScaling", "config": {"distribution": "uniform", "scale": 1.0, "seed": null, "mode": "fan_avg"}}, "name": "conv4_block10_2_conv", "bias_regularizer": null, "bias_constraint": null, "activation": "linear", "trainable": true, "data_format": "channels_last", "padding": "same", "strides": [1, 1], "dilation_rate": [1, 1], "kernel_regularizer": null, "filters": 32, "bias_initializer": {"class_name": "Zeros", "config": {}}, "use_bias": false, "activity_regularizer": null, "kernel_size": [3, 3]}, "inbound_nodes": [[["conv4_block10_1_relu", 0, 0, {}]]], "name": "conv4_block10_2_conv"}, {"class_name": "Concatenate", "config": {"trainable": true, "name": "conv4_block10_concat", "axis": 3}, "inbound_nodes": [[["conv4_block9_concat", 0, 0, {}], ["conv4_block10_2_conv", 0, 0, {}]]], "name": "conv4_block10_concat"}, {"class_name": "BatchNormalization", "config": {"beta_constraint": null, "gamma_initializer": {"class_name": "Ones", "config": {}}, "moving_mean_initializer": {"class_name": "Zeros", "config": {}}, "name": "conv4_block11_0_bn", "epsilon": 1.001e-05, "trainable": true, "moving_variance_initializer": {"class_name": "Ones", "config": {}}, "beta_initializer": {"class_name": "Zeros", "config": {}}, "scale": true, "axis": 3, "gamma_constraint": null, "gamma_regularizer": null, "beta_regularizer": null, "momentum": 0.99, "center": true}, "inbound_nodes": [[["conv4_block10_concat", 0, 0, {}]]], "name": "conv4_block11_0_bn"}, {"class_name": "Activation", "config": {"activation": "relu", "trainable": true, "name": "conv4_block11_0_relu"}, "inbound_nodes": [[["conv4_block11_0_bn", 0, 0, {}]]], "name": "conv4_block11_0_relu"}, {"class_name": "Conv2D", "config": {"kernel_constraint": null, "kernel_initializer": {"class_name": "VarianceScaling", "config": {"distribution": "uniform", "scale": 1.0, "seed": null, "mode": "fan_avg"}}, "name": "conv4_block11_1_conv", "bias_regularizer": null, "bias_constraint": null, "activation": "linear", "trainable": true, "data_format": "channels_last", "padding": "valid", "strides": [1, 1], "dilation_rate": [1, 1], "kernel_regularizer": null, "filters": 128, "bias_initializer": {"class_name": "Zeros", "config": {}}, "use_bias": false, "activity_regularizer": null, "kernel_size": [1, 1]}, "inbound_nodes": [[["conv4_block11_0_relu", 0, 0, {}]]], "name": "conv4_block11_1_conv"}, {"class_name": "BatchNormalization", "config": {"beta_constraint": null, "gamma_initializer": {"class_name": "Ones", "config": {}}, "moving_mean_initializer": {"class_name": "Zeros", "config": {}}, "name": "conv4_block11_1_bn", "epsilon": 1.001e-05, "trainable": true, "moving_variance_initializer": {"class_name": "Ones", "config": {}}, "beta_initializer": {"class_name": "Zeros", "config": {}}, "scale": true, "axis": 3, "gamma_constraint": null, "gamma_regularizer": null, "beta_regularizer": null, "momentum": 0.99, "center": true}, "inbound_nodes": [[["conv4_block11_1_conv", 0, 0, {}]]], "name": "conv4_block11_1_bn"}, {"class_name": "Activation", "config": {"activation": "relu", "trainable": true, "name": "conv4_block11_1_relu"}, "inbound_nodes": [[["conv4_block11_1_bn", 0, 0, {}]]], "name": "conv4_block11_1_relu"}, {"class_name": "Conv2D", "config": {"kernel_constraint": null, "kernel_initializer": {"class_name": "VarianceScaling", "config": {"distribution": "uniform", "scale": 1.0, "seed": null, "mode": "fan_avg"}}, "name": "conv4_block11_2_conv", "bias_regularizer": null, "bias_constraint": null, "activation": "linear", "trainable": true, "data_format": "channels_last", "padding": "same", "strides": [1, 1], "dilation_rate": [1, 1], "kernel_regularizer": null, "filters": 32, "bias_initializer": {"class_name": "Zeros", "config": {}}, "use_bias": false, "activity_regularizer": null, "kernel_size": [3, 3]}, "inbound_nodes": [[["conv4_block11_1_relu", 0, 0, {}]]], "name": "conv4_block11_2_conv"}, {"class_name": "Concatenate", "config": {"trainable": true, "name": "conv4_block11_concat", "axis": 3}, "inbound_nodes": [[["conv4_block10_concat", 0, 0, {}], ["conv4_block11_2_conv", 0, 0, {}]]], "name": "conv4_block11_concat"}, {"class_name": "BatchNormalization", "config": {"beta_constraint": null, "gamma_initializer": {"class_name": "Ones", "config": {}}, "moving_mean_initializer": {"class_name": "Zeros", "config": {}}, "name": "conv4_block12_0_bn", "epsilon": 1.001e-05, "trainable": true, "moving_variance_initializer": {"class_name": "Ones", "config": {}}, "beta_initializer": {"class_name": "Zeros", "config": {}}, "scale": true, "axis": 3, "gamma_constraint": null, "gamma_regularizer": null, "beta_regularizer": null, "momentum": 0.99, "center": true}, "inbound_nodes": [[["conv4_block11_concat", 0, 0, {}]]], "name": "conv4_block12_0_bn"}, {"class_name": "Activation", "config": {"activation": "relu", "trainable": true, "name": "conv4_block12_0_relu"}, "inbound_nodes": [[["conv4_block12_0_bn", 0, 0, {}]]], "name": "conv4_block12_0_relu"}, {"class_name": "Conv2D", "config": {"kernel_constraint": null, "kernel_initializer": {"class_name": "VarianceScaling", "config": {"distribution": "uniform", "scale": 1.0, "seed": null, "mode": "fan_avg"}}, "name": "conv4_block12_1_conv", "bias_regularizer": null, "bias_constraint": null, "activation": "linear", "trainable": true, "data_format": "channels_last", "padding": "valid", "strides": [1, 1], "dilation_rate": [1, 1], "kernel_regularizer": null, "filters": 128, "bias_initializer": {"class_name": "Zeros", "config": {}}, "use_bias": false, "activity_regularizer": null, "kernel_size": [1, 1]}, "inbound_nodes": [[["conv4_block12_0_relu", 0, 0, {}]]], "name": "conv4_block12_1_conv"}, {"class_name": "BatchNormalization", "config": {"beta_constraint": null, "gamma_initializer": {"class_name": "Ones", "config": {}}, "moving_mean_initializer": {"class_name": "Zeros", "config": {}}, "name": "conv4_block12_1_bn", "epsilon": 1.001e-05, "trainable": true, "moving_variance_initializer": {"class_name": "Ones", "config": {}}, "beta_initializer": {"class_name": "Zeros", "config": {}}, "scale": true, "axis": 3, "gamma_constraint": null, "gamma_regularizer": null, "beta_regularizer": null, "momentum": 0.99, "center": true}, "inbound_nodes": [[["conv4_block12_1_conv", 0, 0, {}]]], "name": "conv4_block12_1_bn"}, {"class_name": "Activation", "config": {"activation": "relu", "trainable": true, "name": "conv4_block12_1_relu"}, "inbound_nodes": [[["conv4_block12_1_bn", 0, 0, {}]]], "name": "conv4_block12_1_relu"}, {"class_name": "Conv2D", "config": {"kernel_constraint": null, "kernel_initializer": {"class_name": "VarianceScaling", "config": {"distribution": "uniform", "scale": 1.0, "seed": null, "mode": "fan_avg"}}, "name": "conv4_block12_2_conv", "bias_regularizer": null, "bias_constraint": null, "activation": "linear", "trainable": true, "data_format": "channels_last", "padding": "same", "strides": [1, 1], "dilation_rate": [1, 1], "kernel_regularizer": null, "filters": 32, "bias_initializer": {"class_name": "Zeros", "config": {}}, "use_bias": false, "activity_regularizer": null, "kernel_size": [3, 3]}, "inbound_nodes": [[["conv4_block12_1_relu", 0, 0, {}]]], "name": "conv4_block12_2_conv"}, {"class_name": "Concatenate", "config": {"trainable": true, "name": "conv4_block12_concat", "axis": 3}, "inbound_nodes": [[["conv4_block11_concat", 0, 0, {}], ["conv4_block12_2_conv", 0, 0, {}]]], "name": "conv4_block12_concat"}, {"class_name": "BatchNormalization", "config": {"beta_constraint": null, "gamma_initializer": {"class_name": "Ones", "config": {}}, "moving_mean_initializer": {"class_name": "Zeros", "config": {}}, "name": "conv4_block13_0_bn", "epsilon": 1.001e-05, "trainable": true, "moving_variance_initializer": {"class_name": "Ones", "config": {}}, "beta_initializer": {"class_name": "Zeros", "config": {}}, "scale": true, "axis": 3, "gamma_constraint": null, "gamma_regularizer": null, "beta_regularizer": null, "momentum": 0.99, "center": true}, "inbound_nodes": [[["conv4_block12_concat", 0, 0, {}]]], "name": "conv4_block13_0_bn"}, {"class_name": "Activation", "config": {"activation": "relu", "trainable": true, "name": "conv4_block13_0_relu"}, "inbound_nodes": [[["conv4_block13_0_bn", 0, 0, {}]]], "name": "conv4_block13_0_relu"}, {"class_name": "Conv2D", "config": {"kernel_constraint": null, "kernel_initializer": {"class_name": "VarianceScaling", "config": {"distribution": "uniform", "scale": 1.0, "seed": null, "mode": "fan_avg"}}, "name": "conv4_block13_1_conv", "bias_regularizer": null, "bias_constraint": null, "activation": "linear", "trainable": true, "data_format": "channels_last", "padding": "valid", "strides": [1, 1], "dilation_rate": [1, 1], "kernel_regularizer": null, "filters": 128, "bias_initializer": {"class_name": "Zeros", "config": {}}, "use_bias": false, "activity_regularizer": null, "kernel_size": [1, 1]}, "inbound_nodes": [[["conv4_block13_0_relu", 0, 0, {}]]], "name": "conv4_block13_1_conv"}, {"class_name": "BatchNormalization", "config": {"beta_constraint": null, "gamma_initializer": {"class_name": "Ones", "config": {}}, "moving_mean_initializer": {"class_name": "Zeros", "config": {}}, "name": "conv4_block13_1_bn", "epsilon": 1.001e-05, "trainable": true, "moving_variance_initializer": {"class_name": "Ones", "config": {}}, "beta_initializer": {"class_name": "Zeros", "config": {}}, "scale": true, "axis": 3, "gamma_constraint": null, "gamma_regularizer": null, "beta_regularizer": null, "momentum": 0.99, "center": true}, "inbound_nodes": [[["conv4_block13_1_conv", 0, 0, {}]]], "name": "conv4_block13_1_bn"}, {"class_name": "Activation", "config": {"activation": "relu", "trainable": true, "name": "conv4_block13_1_relu"}, "inbound_nodes": [[["conv4_block13_1_bn", 0, 0, {}]]], "name": "conv4_block13_1_relu"}, {"class_name": "Conv2D", "config": {"kernel_constraint": null, "kernel_initializer": {"class_name": "VarianceScaling", "config": {"distribution": "uniform", "scale": 1.0, "seed": null, "mode": "fan_avg"}}, "name": "conv4_block13_2_conv", "bias_regularizer": null, "bias_constraint": null, "activation": "linear", "trainable": true, "data_format": "channels_last", "padding": "same", "strides": [1, 1], "dilation_rate": [1, 1], "kernel_regularizer": null, "filters": 32, "bias_initializer": {"class_name": "Zeros", "config": {}}, "use_bias": false, "activity_regularizer": null, "kernel_size": [3, 3]}, "inbound_nodes": [[["conv4_block13_1_relu", 0, 0, {}]]], "name": "conv4_block13_2_conv"}, {"class_name": "Concatenate", "config": {"trainable": true, "name": "conv4_block13_concat", "axis": 3}, "inbound_nodes": [[["conv4_block12_concat", 0, 0, {}], ["conv4_block13_2_conv", 0, 0, {}]]], "name": "conv4_block13_concat"}, {"class_name": "BatchNormalization", "config": {"beta_constraint": null, "gamma_initializer": {"class_name": "Ones", "config": {}}, "moving_mean_initializer": {"class_name": "Zeros", "config": {}}, "name": "conv4_block14_0_bn", "epsilon": 1.001e-05, "trainable": true, "moving_variance_initializer": {"class_name": "Ones", "config": {}}, "beta_initializer": {"class_name": "Zeros", "config": {}}, "scale": true, "axis": 3, "gamma_constraint": null, "gamma_regularizer": null, "beta_regularizer": null, "momentum": 0.99, "center": true}, "inbound_nodes": [[["conv4_block13_concat", 0, 0, {}]]], "name": "conv4_block14_0_bn"}, {"class_name": "Activation", "config": {"activation": "relu", "trainable": true, "name": "conv4_block14_0_relu"}, "inbound_nodes": [[["conv4_block14_0_bn", 0, 0, {}]]], "name": "conv4_block14_0_relu"}, {"class_name": "Conv2D", "config": {"kernel_constraint": null, "kernel_initializer": {"class_name": "VarianceScaling", "config": {"distribution": "uniform", "scale": 1.0, "seed": null, "mode": "fan_avg"}}, "name": "conv4_block14_1_conv", "bias_regularizer": null, "bias_constraint": null, "activation": "linear", "trainable": true, "data_format": "channels_last", "padding": "valid", "strides": [1, 1], "dilation_rate": [1, 1], "kernel_regularizer": null, "filters": 128, "bias_initializer": {"class_name": "Zeros", "config": {}}, "use_bias": false, "activity_regularizer": null, "kernel_size": [1, 1]}, "inbound_nodes": [[["conv4_block14_0_relu", 0, 0, {}]]], "name": "conv4_block14_1_conv"}, {"class_name": "BatchNormalization", "config": {"beta_constraint": null, "gamma_initializer": {"class_name": "Ones", "config": {}}, "moving_mean_initializer": {"class_name": "Zeros", "config": {}}, "name": "conv4_block14_1_bn", "epsilon": 1.001e-05, "trainable": true, "moving_variance_initializer": {"class_name": "Ones", "config": {}}, "beta_initializer": {"class_name": "Zeros", "config": {}}, "scale": true, "axis": 3, "gamma_constraint": null, "gamma_regularizer": null, "beta_regularizer": null, "momentum": 0.99, "center": true}, "inbound_nodes": [[["conv4_block14_1_conv", 0, 0, {}]]], "name": "conv4_block14_1_bn"}, {"class_name": "Activation", "config": {"activation": "relu", "trainable": true, "name": "conv4_block14_1_relu"}, "inbound_nodes": [[["conv4_block14_1_bn", 0, 0, {}]]], "name": "conv4_block14_1_relu"}, {"class_name": "Conv2D", "config": {"kernel_constraint": null, "kernel_initializer": {"class_name": "VarianceScaling", "config": {"distribution": "uniform", "scale": 1.0, "seed": null, "mode": "fan_avg"}}, "name": "conv4_block14_2_conv", "bias_regularizer": null, "bias_constraint": null, "activation": "linear", "trainable": true, "data_format": "channels_last", "padding": "same", "strides": [1, 1], "dilation_rate": [1, 1], "kernel_regularizer": null, "filters": 32, "bias_initializer": {"class_name": "Zeros", "config": {}}, "use_bias": false, "activity_regularizer": null, "kernel_size": [3, 3]}, "inbound_nodes": [[["conv4_block14_1_relu", 0, 0, {}]]], "name": "conv4_block14_2_conv"}, {"class_name": "Concatenate", "config": {"trainable": true, "name": "conv4_block14_concat", "axis": 3}, "inbound_nodes": [[["conv4_block13_concat", 0, 0, {}], ["conv4_block14_2_conv", 0, 0, {}]]], "name": "conv4_block14_concat"}, {"class_name": "BatchNormalization", "config": {"beta_constraint": null, "gamma_initializer": {"class_name": "Ones", "config": {}}, "moving_mean_initializer": {"class_name": "Zeros", "config": {}}, "name": "conv4_block15_0_bn", "epsilon": 1.001e-05, "trainable": true, "moving_variance_initializer": {"class_name": "Ones", "config": {}}, "beta_initializer": {"class_name": "Zeros", "config": {}}, "scale": true, "axis": 3, "gamma_constraint": null, "gamma_regularizer": null, "beta_regularizer": null, "momentum": 0.99, "center": true}, "inbound_nodes": [[["conv4_block14_concat", 0, 0, {}]]], "name": "conv4_block15_0_bn"}, {"class_name": "Activation", "config": {"activation": "relu", "trainable": true, "name": "conv4_block15_0_relu"}, "inbound_nodes": [[["conv4_block15_0_bn", 0, 0, {}]]], "name": "conv4_block15_0_relu"}, {"class_name": "Conv2D", "config": {"kernel_constraint": null, "kernel_initializer": {"class_name": "VarianceScaling", "config": {"distribution": "uniform", "scale": 1.0, "seed": null, "mode": "fan_avg"}}, "name": "conv4_block15_1_conv", "bias_regularizer": null, "bias_constraint": null, "activation": "linear", "trainable": true, "data_format": "channels_last", "padding": "valid", "strides": [1, 1], "dilation_rate": [1, 1], "kernel_regularizer": null, "filters": 128, "bias_initializer": {"class_name": "Zeros", "config": {}}, "use_bias": false, "activity_regularizer": null, "kernel_size": [1, 1]}, "inbound_nodes": [[["conv4_block15_0_relu", 0, 0, {}]]], "name": "conv4_block15_1_conv"}, {"class_name": "BatchNormalization", "config": {"beta_constraint": null, "gamma_initializer": {"class_name": "Ones", "config": {}}, "moving_mean_initializer": {"class_name": "Zeros", "config": {}}, "name": "conv4_block15_1_bn", "epsilon": 1.001e-05, "trainable": true, "moving_variance_initializer": {"class_name": "Ones", "config": {}}, "beta_initializer": {"class_name": "Zeros", "config": {}}, "scale": true, "axis": 3, "gamma_constraint": null, "gamma_regularizer": null, "beta_regularizer": null, "momentum": 0.99, "center": true}, "inbound_nodes": [[["conv4_block15_1_conv", 0, 0, {}]]], "name": "conv4_block15_1_bn"}, {"class_name": "Activation", "config": {"activation": "relu", "trainable": true, "name": "conv4_block15_1_relu"}, "inbound_nodes": [[["conv4_block15_1_bn", 0, 0, {}]]], "name": "conv4_block15_1_relu"}, {"class_name": "Conv2D", "config": {"kernel_constraint": null, "kernel_initializer": {"class_name": "VarianceScaling", "config": {"distribution": "uniform", "scale": 1.0, "seed": null, "mode": "fan_avg"}}, "name": "conv4_block15_2_conv", "bias_regularizer": null, "bias_constraint": null, "activation": "linear", "trainable": true, "data_format": "channels_last", "padding": "same", "strides": [1, 1], "dilation_rate": [1, 1], "kernel_regularizer": null, "filters": 32, "bias_initializer": {"class_name": "Zeros", "config": {}}, "use_bias": false, "activity_regularizer": null, "kernel_size": [3, 3]}, "inbound_nodes": [[["conv4_block15_1_relu", 0, 0, {}]]], "name": "conv4_block15_2_conv"}, {"class_name": "Concatenate", "config": {"trainable": true, "name": "conv4_block15_concat", "axis": 3}, "inbound_nodes": [[["conv4_block14_concat", 0, 0, {}], ["conv4_block15_2_conv", 0, 0, {}]]], "name": "conv4_block15_concat"}, {"class_name": "BatchNormalization", "config": {"beta_constraint": null, "gamma_initializer": {"class_name": "Ones", "config": {}}, "moving_mean_initializer": {"class_name": "Zeros", "config": {}}, "name": "conv4_block16_0_bn", "epsilon": 1.001e-05, "trainable": true, "moving_variance_initializer": {"class_name": "Ones", "config": {}}, "beta_initializer": {"class_name": "Zeros", "config": {}}, "scale": true, "axis": 3, "gamma_constraint": null, "gamma_regularizer": null, "beta_regularizer": null, "momentum": 0.99, "center": true}, "inbound_nodes": [[["conv4_block15_concat", 0, 0, {}]]], "name": "conv4_block16_0_bn"}, {"class_name": "Activation", "config": {"activation": "relu", "trainable": true, "name": "conv4_block16_0_relu"}, "inbound_nodes": [[["conv4_block16_0_bn", 0, 0, {}]]], "name": "conv4_block16_0_relu"}, {"class_name": "Conv2D", "config": {"kernel_constraint": null, "kernel_initializer": {"class_name": "VarianceScaling", "config": {"distribution": "uniform", "scale": 1.0, "seed": null, "mode": "fan_avg"}}, "name": "conv4_block16_1_conv", "bias_regularizer": null, "bias_constraint": null, "activation": "linear", "trainable": true, "data_format": "channels_last", "padding": "valid", "strides": [1, 1], "dilation_rate": [1, 1], "kernel_regularizer": null, "filters": 128, "bias_initializer": {"class_name": "Zeros", "config": {}}, "use_bias": false, "activity_regularizer": null, "kernel_size": [1, 1]}, "inbound_nodes": [[["conv4_block16_0_relu", 0, 0, {}]]], "name": "conv4_block16_1_conv"}, {"class_name": "BatchNormalization", "config": {"beta_constraint": null, "gamma_initializer": {"class_name": "Ones", "config": {}}, "moving_mean_initializer": {"class_name": "Zeros", "config": {}}, "name": "conv4_block16_1_bn", "epsilon": 1.001e-05, "trainable": true, "moving_variance_initializer": {"class_name": "Ones", "config": {}}, "beta_initializer": {"class_name": "Zeros", "config": {}}, "scale": true, "axis": 3, "gamma_constraint": null, "gamma_regularizer": null, "beta_regularizer": null, "momentum": 0.99, "center": true}, "inbound_nodes": [[["conv4_block16_1_conv", 0, 0, {}]]], "name": "conv4_block16_1_bn"}, {"class_name": "Activation", "config": {"activation": "relu", "trainable": true, "name": "conv4_block16_1_relu"}, "inbound_nodes": [[["conv4_block16_1_bn", 0, 0, {}]]], "name": "conv4_block16_1_relu"}, {"class_name": "Conv2D", "config": {"kernel_constraint": null, "kernel_initializer": {"class_name": "VarianceScaling", "config": {"distribution": "uniform", "scale": 1.0, "seed": null, "mode": "fan_avg"}}, "name": "conv4_block16_2_conv", "bias_regularizer": null, "bias_constraint": null, "activation": "linear", "trainable": true, "data_format": "channels_last", "padding": "same", "strides": [1, 1], "dilation_rate": [1, 1], "kernel_regularizer": null, "filters": 32, "bias_initializer": {"class_name": "Zeros", "config": {}}, "use_bias": false, "activity_regularizer": null, "kernel_size": [3, 3]}, "inbound_nodes": [[["conv4_block16_1_relu", 0, 0, {}]]], "name": "conv4_block16_2_conv"}, {"class_name": "Concatenate", "config": {"trainable": true, "name": "conv4_block16_concat", "axis": 3}, "inbound_nodes": [[["conv4_block15_concat", 0, 0, {}], ["conv4_block16_2_conv", 0, 0, {}]]], "name": "conv4_block16_concat"}, {"class_name": "BatchNormalization", "config": {"beta_constraint": null, "gamma_initializer": {"class_name": "Ones", "config": {}}, "moving_mean_initializer": {"class_name": "Zeros", "config": {}}, "name": "conv4_block17_0_bn", "epsilon": 1.001e-05, "trainable": true, "moving_variance_initializer": {"class_name": "Ones", "config": {}}, "beta_initializer": {"class_name": "Zeros", "config": {}}, "scale": true, "axis": 3, "gamma_constraint": null, "gamma_regularizer": null, "beta_regularizer": null, "momentum": 0.99, "center": true}, "inbound_nodes": [[["conv4_block16_concat", 0, 0, {}]]], "name": "conv4_block17_0_bn"}, {"class_name": "Activation", "config": {"activation": "relu", "trainable": true, "name": "conv4_block17_0_relu"}, "inbound_nodes": [[["conv4_block17_0_bn", 0, 0, {}]]], "name": "conv4_block17_0_relu"}, {"class_name": "Conv2D", "config": {"kernel_constraint": null, "kernel_initializer": {"class_name": "VarianceScaling", "config": {"distribution": "uniform", "scale": 1.0, "seed": null, "mode": "fan_avg"}}, "name": "conv4_block17_1_conv", "bias_regularizer": null, "bias_constraint": null, "activation": "linear", "trainable": true, "data_format": "channels_last", "padding": "valid", "strides": [1, 1], "dilation_rate": [1, 1], "kernel_regularizer": null, "filters": 128, "bias_initializer": {"class_name": "Zeros", "config": {}}, "use_bias": false, "activity_regularizer": null, "kernel_size": [1, 1]}, "inbound_nodes": [[["conv4_block17_0_relu", 0, 0, {}]]], "name": "conv4_block17_1_conv"}, {"class_name": "BatchNormalization", "config": {"beta_constraint": null, "gamma_initializer": {"class_name": "Ones", "config": {}}, "moving_mean_initializer": {"class_name": "Zeros", "config": {}}, "name": "conv4_block17_1_bn", "epsilon": 1.001e-05, "trainable": true, "moving_variance_initializer": {"class_name": "Ones", "config": {}}, "beta_initializer": {"class_name": "Zeros", "config": {}}, "scale": true, "axis": 3, "gamma_constraint": null, "gamma_regularizer": null, "beta_regularizer": null, "momentum": 0.99, "center": true}, "inbound_nodes": [[["conv4_block17_1_conv", 0, 0, {}]]], "name": "conv4_block17_1_bn"}, {"class_name": "Activation", "config": {"activation": "relu", "trainable": true, "name": "conv4_block17_1_relu"}, "inbound_nodes": [[["conv4_block17_1_bn", 0, 0, {}]]], "name": "conv4_block17_1_relu"}, {"class_name": "Conv2D", "config": {"kernel_constraint": null, "kernel_initializer": {"class_name": "VarianceScaling", "config": {"distribution": "uniform", "scale": 1.0, "seed": null, "mode": "fan_avg"}}, "name": "conv4_block17_2_conv", "bias_regularizer": null, "bias_constraint": null, "activation": "linear", "trainable": true, "data_format": "channels_last", "padding": "same", "strides": [1, 1], "dilation_rate": [1, 1], "kernel_regularizer": null, "filters": 32, "bias_initializer": {"class_name": "Zeros", "config": {}}, "use_bias": false, "activity_regularizer": null, "kernel_size": [3, 3]}, "inbound_nodes": [[["conv4_block17_1_relu", 0, 0, {}]]], "name": "conv4_block17_2_conv"}, {"class_name": "Concatenate", "config": {"trainable": true, "name": "conv4_block17_concat", "axis": 3}, "inbound_nodes": [[["conv4_block16_concat", 0, 0, {}], ["conv4_block17_2_conv", 0, 0, {}]]], "name": "conv4_block17_concat"}, {"class_name": "BatchNormalization", "config": {"beta_constraint": null, "gamma_initializer": {"class_name": "Ones", "config": {}}, "moving_mean_initializer": {"class_name": "Zeros", "config": {}}, "name": "conv4_block18_0_bn", "epsilon": 1.001e-05, "trainable": true, "moving_variance_initializer": {"class_name": "Ones", "config": {}}, "beta_initializer": {"class_name": "Zeros", "config": {}}, "scale": true, "axis": 3, "gamma_constraint": null, "gamma_regularizer": null, "beta_regularizer": null, "momentum": 0.99, "center": true}, "inbound_nodes": [[["conv4_block17_concat", 0, 0, {}]]], "name": "conv4_block18_0_bn"}, {"class_name": "Activation", "config": {"activation": "relu", "trainable": true, "name": "conv4_block18_0_relu"}, "inbound_nodes": [[["conv4_block18_0_bn", 0, 0, {}]]], "name": "conv4_block18_0_relu"}, {"class_name": "Conv2D", "config": {"kernel_constraint": null, "kernel_initializer": {"class_name": "VarianceScaling", "config": {"distribution": "uniform", "scale": 1.0, "seed": null, "mode": "fan_avg"}}, "name": "conv4_block18_1_conv", "bias_regularizer": null, "bias_constraint": null, "activation": "linear", "trainable": true, "data_format": "channels_last", "padding": "valid", "strides": [1, 1], "dilation_rate": [1, 1], "kernel_regularizer": null, "filters": 128, "bias_initializer": {"class_name": "Zeros", "config": {}}, "use_bias": false, "activity_regularizer": null, "kernel_size": [1, 1]}, "inbound_nodes": [[["conv4_block18_0_relu", 0, 0, {}]]], "name": "conv4_block18_1_conv"}, {"class_name": "BatchNormalization", "config": {"beta_constraint": null, "gamma_initializer": {"class_name": "Ones", "config": {}}, "moving_mean_initializer": {"class_name": "Zeros", "config": {}}, "name": "conv4_block18_1_bn", "epsilon": 1.001e-05, "trainable": true, "moving_variance_initializer": {"class_name": "Ones", "config": {}}, "beta_initializer": {"class_name": "Zeros", "config": {}}, "scale": true, "axis": 3, "gamma_constraint": null, "gamma_regularizer": null, "beta_regularizer": null, "momentum": 0.99, "center": true}, "inbound_nodes": [[["conv4_block18_1_conv", 0, 0, {}]]], "name": "conv4_block18_1_bn"}, {"class_name": "Activation", "config": {"activation": "relu", "trainable": true, "name": "conv4_block18_1_relu"}, "inbound_nodes": [[["conv4_block18_1_bn", 0, 0, {}]]], "name": "conv4_block18_1_relu"}, {"class_name": "Conv2D", "config": {"kernel_constraint": null, "kernel_initializer": {"class_name": "VarianceScaling", "config": {"distribution": "uniform", "scale": 1.0, "seed": null, "mode": "fan_avg"}}, "name": "conv4_block18_2_conv", "bias_regularizer": null, "bias_constraint": null, "activation": "linear", "trainable": true, "data_format": "channels_last", "padding": "same", "strides": [1, 1], "dilation_rate": [1, 1], "kernel_regularizer": null, "filters": 32, "bias_initializer": {"class_name": "Zeros", "config": {}}, "use_bias": false, "activity_regularizer": null, "kernel_size": [3, 3]}, "inbound_nodes": [[["conv4_block18_1_relu", 0, 0, {}]]], "name": "conv4_block18_2_conv"}, {"class_name": "Concatenate", "config": {"trainable": true, "name": "conv4_block18_concat", "axis": 3}, "inbound_nodes": [[["conv4_block17_concat", 0, 0, {}], ["conv4_block18_2_conv", 0, 0, {}]]], "name": "conv4_block18_concat"}, {"class_name": "BatchNormalization", "config": {"beta_constraint": null, "gamma_initializer": {"class_name": "Ones", "config": {}}, "moving_mean_initializer": {"class_name": "Zeros", "config": {}}, "name": "conv4_block19_0_bn", "epsilon": 1.001e-05, "trainable": true, "moving_variance_initializer": {"class_name": "Ones", "config": {}}, "beta_initializer": {"class_name": "Zeros", "config": {}}, "scale": true, "axis": 3, "gamma_constraint": null, "gamma_regularizer": null, "beta_regularizer": null, "momentum": 0.99, "center": true}, "inbound_nodes": [[["conv4_block18_concat", 0, 0, {}]]], "name": "conv4_block19_0_bn"}, {"class_name": "Activation", "config": {"activation": "relu", "trainable": true, "name": "conv4_block19_0_relu"}, "inbound_nodes": [[["conv4_block19_0_bn", 0, 0, {}]]], "name": "conv4_block19_0_relu"}, {"class_name": "Conv2D", "config": {"kernel_constraint": null, "kernel_initializer": {"class_name": "VarianceScaling", "config": {"distribution": "uniform", "scale": 1.0, "seed": null, "mode": "fan_avg"}}, "name": "conv4_block19_1_conv", "bias_regularizer": null, "bias_constraint": null, "activation": "linear", "trainable": true, "data_format": "channels_last", "padding": "valid", "strides": [1, 1], "dilation_rate": [1, 1], "kernel_regularizer": null, "filters": 128, "bias_initializer": {"class_name": "Zeros", "config": {}}, "use_bias": false, "activity_regularizer": null, "kernel_size": [1, 1]}, "inbound_nodes": [[["conv4_block19_0_relu", 0, 0, {}]]], "name": "conv4_block19_1_conv"}, {"class_name": "BatchNormalization", "config": {"beta_constraint": null, "gamma_initializer": {"class_name": "Ones", "config": {}}, "moving_mean_initializer": {"class_name": "Zeros", "config": {}}, "name": "conv4_block19_1_bn", "epsilon": 1.001e-05, "trainable": true, "moving_variance_initializer": {"class_name": "Ones", "config": {}}, "beta_initializer": {"class_name": "Zeros", "config": {}}, "scale": true, "axis": 3, "gamma_constraint": null, "gamma_regularizer": null, "beta_regularizer": null, "momentum": 0.99, "center": true}, "inbound_nodes": [[["conv4_block19_1_conv", 0, 0, {}]]], "name": "conv4_block19_1_bn"}, {"class_name": "Activation", "config": {"activation": "relu", "trainable": true, "name": "conv4_block19_1_relu"}, "inbound_nodes": [[["conv4_block19_1_bn", 0, 0, {}]]], "name": "conv4_block19_1_relu"}, {"class_name": "Conv2D", "config": {"kernel_constraint": null, "kernel_initializer": {"class_name": "VarianceScaling", "config": {"distribution": "uniform", "scale": 1.0, "seed": null, "mode": "fan_avg"}}, "name": "conv4_block19_2_conv", "bias_regularizer": null, "bias_constraint": null, "activation": "linear", "trainable": true, "data_format": "channels_last", "padding": "same", "strides": [1, 1], "dilation_rate": [1, 1], "kernel_regularizer": null, "filters": 32, "bias_initializer": {"class_name": "Zeros", "config": {}}, "use_bias": false, "activity_regularizer": null, "kernel_size": [3, 3]}, "inbound_nodes": [[["conv4_block19_1_relu", 0, 0, {}]]], "name": "conv4_block19_2_conv"}, {"class_name": "Concatenate", "config": {"trainable": true, "name": "conv4_block19_concat", "axis": 3}, "inbound_nodes": [[["conv4_block18_concat", 0, 0, {}], ["conv4_block19_2_conv", 0, 0, {}]]], "name": "conv4_block19_concat"}, {"class_name": "BatchNormalization", "config": {"beta_constraint": null, "gamma_initializer": {"class_name": "Ones", "config": {}}, "moving_mean_initializer": {"class_name": "Zeros", "config": {}}, "name": "conv4_block20_0_bn", "epsilon": 1.001e-05, "trainable": true, "moving_variance_initializer": {"class_name": "Ones", "config": {}}, "beta_initializer": {"class_name": "Zeros", "config": {}}, "scale": true, "axis": 3, "gamma_constraint": null, "gamma_regularizer": null, "beta_regularizer": null, "momentum": 0.99, "center": true}, "inbound_nodes": [[["conv4_block19_concat", 0, 0, {}]]], "name": "conv4_block20_0_bn"}, {"class_name": "Activation", "config": {"activation": "relu", "trainable": true, "name": "conv4_block20_0_relu"}, "inbound_nodes": [[["conv4_block20_0_bn", 0, 0, {}]]], "name": "conv4_block20_0_relu"}, {"class_name": "Conv2D", "config": {"kernel_constraint": null, "kernel_initializer": {"class_name": "VarianceScaling", "config": {"distribution": "uniform", "scale": 1.0, "seed": null, "mode": "fan_avg"}}, "name": "conv4_block20_1_conv", "bias_regularizer": null, "bias_constraint": null, "activation": "linear", "trainable": true, "data_format": "channels_last", "padding": "valid", "strides": [1, 1], "dilation_rate": [1, 1], "kernel_regularizer": null, "filters": 128, "bias_initializer": {"class_name": "Zeros", "config": {}}, "use_bias": false, "activity_regularizer": null, "kernel_size": [1, 1]}, "inbound_nodes": [[["conv4_block20_0_relu", 0, 0, {}]]], "name": "conv4_block20_1_conv"}, {"class_name": "BatchNormalization", "config": {"beta_constraint": null, "gamma_initializer": {"class_name": "Ones", "config": {}}, "moving_mean_initializer": {"class_name": "Zeros", "config": {}}, "name": "conv4_block20_1_bn", "epsilon": 1.001e-05, "trainable": true, "moving_variance_initializer": {"class_name": "Ones", "config": {}}, "beta_initializer": {"class_name": "Zeros", "config": {}}, "scale": true, "axis": 3, "gamma_constraint": null, "gamma_regularizer": null, "beta_regularizer": null, "momentum": 0.99, "center": true}, "inbound_nodes": [[["conv4_block20_1_conv", 0, 0, {}]]], "name": "conv4_block20_1_bn"}, {"class_name": "Activation", "config": {"activation": "relu", "trainable": true, "name": "conv4_block20_1_relu"}, "inbound_nodes": [[["conv4_block20_1_bn", 0, 0, {}]]], "name": "conv4_block20_1_relu"}, {"class_name": "Conv2D", "config": {"kernel_constraint": null, "kernel_initializer": {"class_name": "VarianceScaling", "config": {"distribution": "uniform", "scale": 1.0, "seed": null, "mode": "fan_avg"}}, "name": "conv4_block20_2_conv", "bias_regularizer": null, "bias_constraint": null, "activation": "linear", "trainable": true, "data_format": "channels_last", "padding": "same", "strides": [1, 1], "dilation_rate": [1, 1], "kernel_regularizer": null, "filters": 32, "bias_initializer": {"class_name": "Zeros", "config": {}}, "use_bias": false, "activity_regularizer": null, "kernel_size": [3, 3]}, "inbound_nodes": [[["conv4_block20_1_relu", 0, 0, {}]]], "name": "conv4_block20_2_conv"}, {"class_name": "Concatenate", "config": {"trainable": true, "name": "conv4_block20_concat", "axis": 3}, "inbound_nodes": [[["conv4_block19_concat", 0, 0, {}], ["conv4_block20_2_conv", 0, 0, {}]]], "name": "conv4_block20_concat"}, {"class_name": "BatchNormalization", "config": {"beta_constraint": null, "gamma_initializer": {"class_name": "Ones", "config": {}}, "moving_mean_initializer": {"class_name": "Zeros", "config": {}}, "name": "conv4_block21_0_bn", "epsilon": 1.001e-05, "trainable": true, "moving_variance_initializer": {"class_name": "Ones", "config": {}}, "beta_initializer": {"class_name": "Zeros", "config": {}}, "scale": true, "axis": 3, "gamma_constraint": null, "gamma_regularizer": null, "beta_regularizer": null, "momentum": 0.99, "center": true}, "inbound_nodes": [[["conv4_block20_concat", 0, 0, {}]]], "name": "conv4_block21_0_bn"}, {"class_name": "Activation", "config": {"activation": "relu", "trainable": true, "name": "conv4_block21_0_relu"}, "inbound_nodes": [[["conv4_block21_0_bn", 0, 0, {}]]], "name": "conv4_block21_0_relu"}, {"class_name": "Conv2D", "config": {"kernel_constraint": null, "kernel_initializer": {"class_name": "VarianceScaling", "config": {"distribution": "uniform", "scale": 1.0, "seed": null, "mode": "fan_avg"}}, "name": "conv4_block21_1_conv", "bias_regularizer": null, "bias_constraint": null, "activation": "linear", "trainable": true, "data_format": "channels_last", "padding": "valid", "strides": [1, 1], "dilation_rate": [1, 1], "kernel_regularizer": null, "filters": 128, "bias_initializer": {"class_name": "Zeros", "config": {}}, "use_bias": false, "activity_regularizer": null, "kernel_size": [1, 1]}, "inbound_nodes": [[["conv4_block21_0_relu", 0, 0, {}]]], "name": "conv4_block21_1_conv"}, {"class_name": "BatchNormalization", "config": {"beta_constraint": null, "gamma_initializer": {"class_name": "Ones", "config": {}}, "moving_mean_initializer": {"class_name": "Zeros", "config": {}}, "name": "conv4_block21_1_bn", "epsilon": 1.001e-05, "trainable": true, "moving_variance_initializer": {"class_name": "Ones", "config": {}}, "beta_initializer": {"class_name": "Zeros", "config": {}}, "scale": true, "axis": 3, "gamma_constraint": null, "gamma_regularizer": null, "beta_regularizer": null, "momentum": 0.99, "center": true}, "inbound_nodes": [[["conv4_block21_1_conv", 0, 0, {}]]], "name": "conv4_block21_1_bn"}, {"class_name": "Activation", "config": {"activation": "relu", "trainable": true, "name": "conv4_block21_1_relu"}, "inbound_nodes": [[["conv4_block21_1_bn", 0, 0, {}]]], "name": "conv4_block21_1_relu"}, {"class_name": "Conv2D", "config": {"kernel_constraint": null, "kernel_initializer": {"class_name": "VarianceScaling", "config": {"distribution": "uniform", "scale": 1.0, "seed": null, "mode": "fan_avg"}}, "name": "conv4_block21_2_conv", "bias_regularizer": null, "bias_constraint": null, "activation": "linear", "trainable": true, "data_format": "channels_last", "padding": "same", "strides": [1, 1], "dilation_rate": [1, 1], "kernel_regularizer": null, "filters": 32, "bias_initializer": {"class_name": "Zeros", "config": {}}, "use_bias": false, "activity_regularizer": null, "kernel_size": [3, 3]}, "inbound_nodes": [[["conv4_block21_1_relu", 0, 0, {}]]], "name": "conv4_block21_2_conv"}, {"class_name": "Concatenate", "config": {"trainable": true, "name": "conv4_block21_concat", "axis": 3}, "inbound_nodes": [[["conv4_block20_concat", 0, 0, {}], ["conv4_block21_2_conv", 0, 0, {}]]], "name": "conv4_block21_concat"}, {"class_name": "BatchNormalization", "config": {"beta_constraint": null, "gamma_initializer": {"class_name": "Ones", "config": {}}, "moving_mean_initializer": {"class_name": "Zeros", "config": {}}, "name": "conv4_block22_0_bn", "epsilon": 1.001e-05, "trainable": true, "moving_variance_initializer": {"class_name": "Ones", "config": {}}, "beta_initializer": {"class_name": "Zeros", "config": {}}, "scale": true, "axis": 3, "gamma_constraint": null, "gamma_regularizer": null, "beta_regularizer": null, "momentum": 0.99, "center": true}, "inbound_nodes": [[["conv4_block21_concat", 0, 0, {}]]], "name": "conv4_block22_0_bn"}, {"class_name": "Activation", "config": {"activation": "relu", "trainable": true, "name": "conv4_block22_0_relu"}, "inbound_nodes": [[["conv4_block22_0_bn", 0, 0, {}]]], "name": "conv4_block22_0_relu"}, {"class_name": "Conv2D", "config": {"kernel_constraint": null, "kernel_initializer": {"class_name": "VarianceScaling", "config": {"distribution": "uniform", "scale": 1.0, "seed": null, "mode": "fan_avg"}}, "name": "conv4_block22_1_conv", "bias_regularizer": null, "bias_constraint": null, "activation": "linear", "trainable": true, "data_format": "channels_last", "padding": "valid", "strides": [1, 1], "dilation_rate": [1, 1], "kernel_regularizer": null, "filters": 128, "bias_initializer": {"class_name": "Zeros", "config": {}}, "use_bias": false, "activity_regularizer": null, "kernel_size": [1, 1]}, "inbound_nodes": [[["conv4_block22_0_relu", 0, 0, {}]]], "name": "conv4_block22_1_conv"}, {"class_name": "BatchNormalization", "config": {"beta_constraint": null, "gamma_initializer": {"class_name": "Ones", "config": {}}, "moving_mean_initializer": {"class_name": "Zeros", "config": {}}, "name": "conv4_block22_1_bn", "epsilon": 1.001e-05, "trainable": true, "moving_variance_initializer": {"class_name": "Ones", "config": {}}, "beta_initializer": {"class_name": "Zeros", "config": {}}, "scale": true, "axis": 3, "gamma_constraint": null, "gamma_regularizer": null, "beta_regularizer": null, "momentum": 0.99, "center": true}, "inbound_nodes": [[["conv4_block22_1_conv", 0, 0, {}]]], "name": "conv4_block22_1_bn"}, {"class_name": "Activation", "config": {"activation": "relu", "trainable": true, "name": "conv4_block22_1_relu"}, "inbound_nodes": [[["conv4_block22_1_bn", 0, 0, {}]]], "name": "conv4_block22_1_relu"}, {"class_name": "Conv2D", "config": {"kernel_constraint": null, "kernel_initializer": {"class_name": "VarianceScaling", "config": {"distribution": "uniform", "scale": 1.0, "seed": null, "mode": "fan_avg"}}, "name": "conv4_block22_2_conv", "bias_regularizer": null, "bias_constraint": null, "activation": "linear", "trainable": true, "data_format": "channels_last", "padding": "same", "strides": [1, 1], "dilation_rate": [1, 1], "kernel_regularizer": null, "filters": 32, "bias_initializer": {"class_name": "Zeros", "config": {}}, "use_bias": false, "activity_regularizer": null, "kernel_size": [3, 3]}, "inbound_nodes": [[["conv4_block22_1_relu", 0, 0, {}]]], "name": "conv4_block22_2_conv"}, {"class_name": "Concatenate", "config": {"trainable": true, "name": "conv4_block22_concat", "axis": 3}, "inbound_nodes": [[["conv4_block21_concat", 0, 0, {}], ["conv4_block22_2_conv", 0, 0, {}]]], "name": "conv4_block22_concat"}, {"class_name": "BatchNormalization", "config": {"beta_constraint": null, "gamma_initializer": {"class_name": "Ones", "config": {}}, "moving_mean_initializer": {"class_name": "Zeros", "config": {}}, "name": "conv4_block23_0_bn", "epsilon": 1.001e-05, "trainable": true, "moving_variance_initializer": {"class_name": "Ones", "config": {}}, "beta_initializer": {"class_name": "Zeros", "config": {}}, "scale": true, "axis": 3, "gamma_constraint": null, "gamma_regularizer": null, "beta_regularizer": null, "momentum": 0.99, "center": true}, "inbound_nodes": [[["conv4_block22_concat", 0, 0, {}]]], "name": "conv4_block23_0_bn"}, {"class_name": "Activation", "config": {"activation": "relu", "trainable": true, "name": "conv4_block23_0_relu"}, "inbound_nodes": [[["conv4_block23_0_bn", 0, 0, {}]]], "name": "conv4_block23_0_relu"}, {"class_name": "Conv2D", "config": {"kernel_constraint": null, "kernel_initializer": {"class_name": "VarianceScaling", "config": {"distribution": "uniform", "scale": 1.0, "seed": null, "mode": "fan_avg"}}, "name": "conv4_block23_1_conv", "bias_regularizer": null, "bias_constraint": null, "activation": "linear", "trainable": true, "data_format": "channels_last", "padding": "valid", "strides": [1, 1], "dilation_rate": [1, 1], "kernel_regularizer": null, "filters": 128, "bias_initializer": {"class_name": "Zeros", "config": {}}, "use_bias": false, "activity_regularizer": null, "kernel_size": [1, 1]}, "inbound_nodes": [[["conv4_block23_0_relu", 0, 0, {}]]], "name": "conv4_block23_1_conv"}, {"class_name": "BatchNormalization", "config": {"beta_constraint": null, "gamma_initializer": {"class_name": "Ones", "config": {}}, "moving_mean_initializer": {"class_name": "Zeros", "config": {}}, "name": "conv4_block23_1_bn", "epsilon": 1.001e-05, "trainable": true, "moving_variance_initializer": {"class_name": "Ones", "config": {}}, "beta_initializer": {"class_name": "Zeros", "config": {}}, "scale": true, "axis": 3, "gamma_constraint": null, "gamma_regularizer": null, "beta_regularizer": null, "momentum": 0.99, "center": true}, "inbound_nodes": [[["conv4_block23_1_conv", 0, 0, {}]]], "name": "conv4_block23_1_bn"}, {"class_name": "Activation", "config": {"activation": "relu", "trainable": true, "name": "conv4_block23_1_relu"}, "inbound_nodes": [[["conv4_block23_1_bn", 0, 0, {}]]], "name": "conv4_block23_1_relu"}, {"class_name": "Conv2D", "config": {"kernel_constraint": null, "kernel_initializer": {"class_name": "VarianceScaling", "config": {"distribution": "uniform", "scale": 1.0, "seed": null, "mode": "fan_avg"}}, "name": "conv4_block23_2_conv", "bias_regularizer": null, "bias_constraint": null, "activation": "linear", "trainable": true, "data_format": "channels_last", "padding": "same", "strides": [1, 1], "dilation_rate": [1, 1], "kernel_regularizer": null, "filters": 32, "bias_initializer": {"class_name": "Zeros", "config": {}}, "use_bias": false, "activity_regularizer": null, "kernel_size": [3, 3]}, "inbound_nodes": [[["conv4_block23_1_relu", 0, 0, {}]]], "name": "conv4_block23_2_conv"}, {"class_name": "Concatenate", "config": {"trainable": true, "name": "conv4_block23_concat", "axis": 3}, "inbound_nodes": [[["conv4_block22_concat", 0, 0, {}], ["conv4_block23_2_conv", 0, 0, {}]]], "name": "conv4_block23_concat"}, {"class_name": "BatchNormalization", "config": {"beta_constraint": null, "gamma_initializer": {"class_name": "Ones", "config": {}}, "moving_mean_initializer": {"class_name": "Zeros", "config": {}}, "name": "conv4_block24_0_bn", "epsilon": 1.001e-05, "trainable": true, "moving_variance_initializer": {"class_name": "Ones", "config": {}}, "beta_initializer": {"class_name": "Zeros", "config": {}}, "scale": true, "axis": 3, "gamma_constraint": null, "gamma_regularizer": null, "beta_regularizer": null, "momentum": 0.99, "center": true}, "inbound_nodes": [[["conv4_block23_concat", 0, 0, {}]]], "name": "conv4_block24_0_bn"}, {"class_name": "Activation", "config": {"activation": "relu", "trainable": true, "name": "conv4_block24_0_relu"}, "inbound_nodes": [[["conv4_block24_0_bn", 0, 0, {}]]], "name": "conv4_block24_0_relu"}, {"class_name": "Conv2D", "config": {"kernel_constraint": null, "kernel_initializer": {"class_name": "VarianceScaling", "config": {"distribution": "uniform", "scale": 1.0, "seed": null, "mode": "fan_avg"}}, "name": "conv4_block24_1_conv", "bias_regularizer": null, "bias_constraint": null, "activation": "linear", "trainable": true, "data_format": "channels_last", "padding": "valid", "strides": [1, 1], "dilation_rate": [1, 1], "kernel_regularizer": null, "filters": 128, "bias_initializer": {"class_name": "Zeros", "config": {}}, "use_bias": false, "activity_regularizer": null, "kernel_size": [1, 1]}, "inbound_nodes": [[["conv4_block24_0_relu", 0, 0, {}]]], "name": "conv4_block24_1_conv"}, {"class_name": "BatchNormalization", "config": {"beta_constraint": null, "gamma_initializer": {"class_name": "Ones", "config": {}}, "moving_mean_initializer": {"class_name": "Zeros", "config": {}}, "name": "conv4_block24_1_bn", "epsilon": 1.001e-05, "trainable": true, "moving_variance_initializer": {"class_name": "Ones", "config": {}}, "beta_initializer": {"class_name": "Zeros", "config": {}}, "scale": true, "axis": 3, "gamma_constraint": null, "gamma_regularizer": null, "beta_regularizer": null, "momentum": 0.99, "center": true}, "inbound_nodes": [[["conv4_block24_1_conv", 0, 0, {}]]], "name": "conv4_block24_1_bn"}, {"class_name": "Activation", "config": {"activation": "relu", "trainable": true, "name": "conv4_block24_1_relu"}, "inbound_nodes": [[["conv4_block24_1_bn", 0, 0, {}]]], "name": "conv4_block24_1_relu"}, {"class_name": "Conv2D", "config": {"kernel_constraint": null, "kernel_initializer": {"class_name": "VarianceScaling", "config": {"distribution": "uniform", "scale": 1.0, "seed": null, "mode": "fan_avg"}}, "name": "conv4_block24_2_conv", "bias_regularizer": null, "bias_constraint": null, "activation": "linear", "trainable": true, "data_format": "channels_last", "padding": "same", "strides": [1, 1], "dilation_rate": [1, 1], "kernel_regularizer": null, "filters": 32, "bias_initializer": {"class_name": "Zeros", "config": {}}, "use_bias": false, "activity_regularizer": null, "kernel_size": [3, 3]}, "inbound_nodes": [[["conv4_block24_1_relu", 0, 0, {}]]], "name": "conv4_block24_2_conv"}, {"class_name": "Concatenate", "config": {"trainable": true, "name": "conv4_block24_concat", "axis": 3}, "inbound_nodes": [[["conv4_block23_concat", 0, 0, {}], ["conv4_block24_2_conv", 0, 0, {}]]], "name": "conv4_block24_concat"}, {"class_name": "BatchNormalization", "config": {"beta_constraint": null, "gamma_initializer": {"class_name": "Ones", "config": {}}, "moving_mean_initializer": {"class_name": "Zeros", "config": {}}, "name": "conv4_block25_0_bn", "epsilon": 1.001e-05, "trainable": true, "moving_variance_initializer": {"class_name": "Ones", "config": {}}, "beta_initializer": {"class_name": "Zeros", "config": {}}, "scale": true, "axis": 3, "gamma_constraint": null, "gamma_regularizer": null, "beta_regularizer": null, "momentum": 0.99, "center": true}, "inbound_nodes": [[["conv4_block24_concat", 0, 0, {}]]], "name": "conv4_block25_0_bn"}, {"class_name": "Activation", "config": {"activation": "relu", "trainable": true, "name": "conv4_block25_0_relu"}, "inbound_nodes": [[["conv4_block25_0_bn", 0, 0, {}]]], "name": "conv4_block25_0_relu"}, {"class_name": "Conv2D", "config": {"kernel_constraint": null, "kernel_initializer": {"class_name": "VarianceScaling", "config": {"distribution": "uniform", "scale": 1.0, "seed": null, "mode": "fan_avg"}}, "name": "conv4_block25_1_conv", "bias_regularizer": null, "bias_constraint": null, "activation": "linear", "trainable": true, "data_format": "channels_last", "padding": "valid", "strides": [1, 1], "dilation_rate": [1, 1], "kernel_regularizer": null, "filters": 128, "bias_initializer": {"class_name": "Zeros", "config": {}}, "use_bias": false, "activity_regularizer": null, "kernel_size": [1, 1]}, "inbound_nodes": [[["conv4_block25_0_relu", 0, 0, {}]]], "name": "conv4_block25_1_conv"}, {"class_name": "BatchNormalization", "config": {"beta_constraint": null, "gamma_initializer": {"class_name": "Ones", "config": {}}, "moving_mean_initializer": {"class_name": "Zeros", "config": {}}, "name": "conv4_block25_1_bn", "epsilon": 1.001e-05, "trainable": true, "moving_variance_initializer": {"class_name": "Ones", "config": {}}, "beta_initializer": {"class_name": "Zeros", "config": {}}, "scale": true, "axis": 3, "gamma_constraint": null, "gamma_regularizer": null, "beta_regularizer": null, "momentum": 0.99, "center": true}, "inbound_nodes": [[["conv4_block25_1_conv", 0, 0, {}]]], "name": "conv4_block25_1_bn"}, {"class_name": "Activation", "config": {"activation": "relu", "trainable": true, "name": "conv4_block25_1_relu"}, "inbound_nodes": [[["conv4_block25_1_bn", 0, 0, {}]]], "name": "conv4_block25_1_relu"}, {"class_name": "Conv2D", "config": {"kernel_constraint": null, "kernel_initializer": {"class_name": "VarianceScaling", "config": {"distribution": "uniform", "scale": 1.0, "seed": null, "mode": "fan_avg"}}, "name": "conv4_block25_2_conv", "bias_regularizer": null, "bias_constraint": null, "activation": "linear", "trainable": true, "data_format": "channels_last", "padding": "same", "strides": [1, 1], "dilation_rate": [1, 1], "kernel_regularizer": null, "filters": 32, "bias_initializer": {"class_name": "Zeros", "config": {}}, "use_bias": false, "activity_regularizer": null, "kernel_size": [3, 3]}, "inbound_nodes": [[["conv4_block25_1_relu", 0, 0, {}]]], "name": "conv4_block25_2_conv"}, {"class_name": "Concatenate", "config": {"trainable": true, "name": "conv4_block25_concat", "axis": 3}, "inbound_nodes": [[["conv4_block24_concat", 0, 0, {}], ["conv4_block25_2_conv", 0, 0, {}]]], "name": "conv4_block25_concat"}, {"class_name": "BatchNormalization", "config": {"beta_constraint": null, "gamma_initializer": {"class_name": "Ones", "config": {}}, "moving_mean_initializer": {"class_name": "Zeros", "config": {}}, "name": "conv4_block26_0_bn", "epsilon": 1.001e-05, "trainable": true, "moving_variance_initializer": {"class_name": "Ones", "config": {}}, "beta_initializer": {"class_name": "Zeros", "config": {}}, "scale": true, "axis": 3, "gamma_constraint": null, "gamma_regularizer": null, "beta_regularizer": null, "momentum": 0.99, "center": true}, "inbound_nodes": [[["conv4_block25_concat", 0, 0, {}]]], "name": "conv4_block26_0_bn"}, {"class_name": "Activation", "config": {"activation": "relu", "trainable": true, "name": "conv4_block26_0_relu"}, "inbound_nodes": [[["conv4_block26_0_bn", 0, 0, {}]]], "name": "conv4_block26_0_relu"}, {"class_name": "Conv2D", "config": {"kernel_constraint": null, "kernel_initializer": {"class_name": "VarianceScaling", "config": {"distribution": "uniform", "scale": 1.0, "seed": null, "mode": "fan_avg"}}, "name": "conv4_block26_1_conv", "bias_regularizer": null, "bias_constraint": null, "activation": "linear", "trainable": true, "data_format": "channels_last", "padding": "valid", "strides": [1, 1], "dilation_rate": [1, 1], "kernel_regularizer": null, "filters": 128, "bias_initializer": {"class_name": "Zeros", "config": {}}, "use_bias": false, "activity_regularizer": null, "kernel_size": [1, 1]}, "inbound_nodes": [[["conv4_block26_0_relu", 0, 0, {}]]], "name": "conv4_block26_1_conv"}, {"class_name": "BatchNormalization", "config": {"beta_constraint": null, "gamma_initializer": {"class_name": "Ones", "config": {}}, "moving_mean_initializer": {"class_name": "Zeros", "config": {}}, "name": "conv4_block26_1_bn", "epsilon": 1.001e-05, "trainable": true, "moving_variance_initializer": {"class_name": "Ones", "config": {}}, "beta_initializer": {"class_name": "Zeros", "config": {}}, "scale": true, "axis": 3, "gamma_constraint": null, "gamma_regularizer": null, "beta_regularizer": null, "momentum": 0.99, "center": true}, "inbound_nodes": [[["conv4_block26_1_conv", 0, 0, {}]]], "name": "conv4_block26_1_bn"}, {"class_name": "Activation", "config": {"activation": "relu", "trainable": true, "name": "conv4_block26_1_relu"}, "inbound_nodes": [[["conv4_block26_1_bn", 0, 0, {}]]], "name": "conv4_block26_1_relu"}, {"class_name": "Conv2D", "config": {"kernel_constraint": null, "kernel_initializer": {"class_name": "VarianceScaling", "config": {"distribution": "uniform", "scale": 1.0, "seed": null, "mode": "fan_avg"}}, "name": "conv4_block26_2_conv", "bias_regularizer": null, "bias_constraint": null, "activation": "linear", "trainable": true, "data_format": "channels_last", "padding": "same", "strides": [1, 1], "dilation_rate": [1, 1], "kernel_regularizer": null, "filters": 32, "bias_initializer": {"class_name": "Zeros", "config": {}}, "use_bias": false, "activity_regularizer": null, "kernel_size": [3, 3]}, "inbound_nodes": [[["conv4_block26_1_relu", 0, 0, {}]]], "name": "conv4_block26_2_conv"}, {"class_name": "Concatenate", "config": {"trainable": true, "name": "conv4_block26_concat", "axis": 3}, "inbound_nodes": [[["conv4_block25_concat", 0, 0, {}], ["conv4_block26_2_conv", 0, 0, {}]]], "name": "conv4_block26_concat"}, {"class_name": "BatchNormalization", "config": {"beta_constraint": null, "gamma_initializer": {"class_name": "Ones", "config": {}}, "moving_mean_initializer": {"class_name": "Zeros", "config": {}}, "name": "conv4_block27_0_bn", "epsilon": 1.001e-05, "trainable": true, "moving_variance_initializer": {"class_name": "Ones", "config": {}}, "beta_initializer": {"class_name": "Zeros", "config": {}}, "scale": true, "axis": 3, "gamma_constraint": null, "gamma_regularizer": null, "beta_regularizer": null, "momentum": 0.99, "center": true}, "inbound_nodes": [[["conv4_block26_concat", 0, 0, {}]]], "name": "conv4_block27_0_bn"}, {"class_name": "Activation", "config": {"activation": "relu", "trainable": true, "name": "conv4_block27_0_relu"}, "inbound_nodes": [[["conv4_block27_0_bn", 0, 0, {}]]], "name": "conv4_block27_0_relu"}, {"class_name": "Conv2D", "config": {"kernel_constraint": null, "kernel_initializer": {"class_name": "VarianceScaling", "confi…
Scaling", "config": {"distribution": "uniform", "scale": 1.0, "seed": null, "mode": "fan_avg"}}, "name": "conv5_block27_1_conv", "bias_regularizer": null, "bias_constraint": null, "activation": "linear", "trainable": true, "data_format": "channels_last", "padding": "valid", "strides": [1, 1], "dilation_rate": [1, 1], "kernel_regularizer": null, "filters": 128, "bias_initializer": {"class_name": "Zeros", "config": {}}, "use_bias": false, "activity_regularizer": null, "kernel_size": [1, 1]}, "inbound_nodes": [[["conv5_block27_0_relu", 0, 0, {}]]], "name": "conv5_block27_1_conv"}, {"class_name": "BatchNormalization", "config": {"beta_constraint": null, "gamma_initializer": {"class_name": "Ones", "config": {}}, "moving_mean_initializer": {"class_name": "Zeros", "config": {}}, "name": "conv5_block27_1_bn", "epsilon": 1.001e-05, "trainable": true, "moving_variance_initializer": {"class_name": "Ones", "config": {}}, "beta_initializer": {"class_name": "Zeros", "config": {}}, "scale": true, "axis": 3, "gamma_constraint": null, "gamma_regularizer": null, "beta_regularizer": null, "momentum": 0.99, "center": true}, "inbound_nodes": [[["conv5_block27_1_conv", 0, 0, {}]]], "name": "conv5_block27_1_bn"}, {"class_name": "Activation", "config": {"activation": "relu", "trainable": true, "name": "conv5_block27_1_relu"}, "inbound_nodes": [[["conv5_block27_1_bn", 0, 0, {}]]], "name": "conv5_block27_1_relu"}, {"class_name": "Conv2D", "config": {"kernel_constraint": null, "kernel_initializer": {"class_name": "VarianceScaling", "config": {"distribution": "uniform", "scale": 1.0, "seed": null, "mode": "fan_avg"}}, "name": "conv5_block27_2_conv", "bias_regularizer": null, "bias_constraint": null, "activation": "linear", "trainable": true, "data_format": "channels_last", "padding": "same", "strides": [1, 1], "dilation_rate": [1, 1], "kernel_regularizer": null, "filters": 32, "bias_initializer": {"class_name": "Zeros", "config": {}}, "use_bias": false, "activity_regularizer": null, "kernel_size": [3, 3]}, "inbound_nodes": [[["conv5_block27_1_relu", 0, 0, {}]]], "name": "conv5_block27_2_conv"}, {"class_name": "Concatenate", "config": {"trainable": true, "name": "conv5_block27_concat", "axis": 3}, "inbound_nodes": [[["conv5_block26_concat", 0, 0, {}], ["conv5_block27_2_conv", 0, 0, {}]]], "name": "conv5_block27_concat"}, {"class_name": "BatchNormalization", "config": {"beta_constraint": null, "gamma_initializer": {"class_name": "Ones", "config": {}}, "moving_mean_initializer": {"class_name": "Zeros", "config": {}}, "name": "conv5_block28_0_bn", "epsilon": 1.001e-05, "trainable": true, "moving_variance_initializer": {"class_name": "Ones", "config": {}}, "beta_initializer": {"class_name": "Zeros", "config": {}}, "scale": true, "axis": 3, "gamma_constraint": null, "gamma_regularizer": null, "beta_regularizer": null, "momentum": 0.99, "center": true}, "inbound_nodes": [[["conv5_block27_concat", 0, 0, {}]]], "name": "conv5_block28_0_bn"}, {"class_name": "Activation", "config": {"activation": "relu", "trainable": true, "name": "conv5_block28_0_relu"}, "inbound_nodes": [[["conv5_block28_0_bn", 0, 0, {}]]], "name": "conv5_block28_0_relu"}, {"class_name": "Conv2D", "config": {"kernel_constraint": null, "kernel_initializer": {"class_name": "VarianceScaling", "config": {"distribution": "uniform", "scale": 1.0, "seed": null, "mode": "fan_avg"}}, "name": "conv5_block28_1_conv", "bias_regularizer": null, "bias_constraint": null, "activation": "linear", "trainable": true, "data_format": "channels_last", "padding": "valid", "strides": [1, 1], "dilation_rate": [1, 1], "kernel_regularizer": null, "filters": 128, "bias_initializer": {"class_name": "Zeros", "config": {}}, "use_bias": false, "activity_regularizer": null, "kernel_size": [1, 1]}, "inbound_nodes": [[["conv5_block28_0_relu", 0, 0, {}]]], "name": "conv5_block28_1_conv"}, {"class_name": "BatchNormalization", "config": {"beta_constraint": null, "gamma_initializer": {"class_name": "Ones", "config": {}}, "moving_mean_initializer": {"class_name": "Zeros", "config": {}}, "name": "conv5_block28_1_bn", "epsilon": 1.001e-05, "trainable": true, "moving_variance_initializer": {"class_name": "Ones", "config": {}}, "beta_initializer": {"class_name": "Zeros", "config": {}}, "scale": true, "axis": 3, "gamma_constraint": null, "gamma_regularizer": null, "beta_regularizer": null, "momentum": 0.99, "center": true}, "inbound_nodes": [[["conv5_block28_1_conv", 0, 0, {}]]], "name": "conv5_block28_1_bn"}, {"class_name": "Activation", "config": {"activation": "relu", "trainable": true, "name": "conv5_block28_1_relu"}, "inbound_nodes": [[["conv5_block28_1_bn", 0, 0, {}]]], "name": "conv5_block28_1_relu"}, {"class_name": "Conv2D", "config": {"kernel_constraint": null, "kernel_initializer": {"class_name": "VarianceScaling", "config": {"distribution": "uniform", "scale": 1.0, "seed": null, "mode": "fan_avg"}}, "name": "conv5_block28_2_conv", "bias_regularizer": null, "bias_constraint": null, "activation": "linear", "trainable": true, "data_format": "channels_last", "padding": "same", "strides": [1, 1], "dilation_rate": [1, 1], "kernel_regularizer": null, "filters": 32, "bias_initializer": {"class_name": "Zeros", "config": {}}, "use_bias": false, "activity_regularizer": null, "kernel_size": [3, 3]}, "inbound_nodes": [[["conv5_block28_1_relu", 0, 0, {}]]], "name": "conv5_block28_2_conv"}, {"class_name": "Concatenate", "config": {"trainable": true, "name": "conv5_block28_concat", "axis": 3}, "inbound_nodes": [[["conv5_block27_concat", 0, 0, {}], ["conv5_block28_2_conv", 0, 0, {}]]], "name": "conv5_block28_concat"}, {"class_name": "BatchNormalization", "config": {"beta_constraint": null, "gamma_initializer": {"class_name": "Ones", "config": {}}, "moving_mean_initializer": {"class_name": "Zeros", "config": {}}, "name": "conv5_block29_0_bn", "epsilon": 1.001e-05, "trainable": true, "moving_variance_initializer": {"class_name": "Ones", "config": {}}, "beta_initializer": {"class_name": "Zeros", "config": {}}, "scale": true, "axis": 3, "gamma_constraint": null, "gamma_regularizer": null, "beta_regularizer": null, "momentum": 0.99, "center": true}, "inbound_nodes": [[["conv5_block28_concat", 0, 0, {}]]], "name": "conv5_block29_0_bn"}, {"class_name": "Activation", "config": {"activation": "relu", "trainable": true, "name": "conv5_block29_0_relu"}, "inbound_nodes": [[["conv5_block29_0_bn", 0, 0, {}]]], "name": "conv5_block29_0_relu"}, {"class_name": "Conv2D", "config": {"kernel_constraint": null, "kernel_initializer": {"class_name": "VarianceScaling", "config": {"distribution": "uniform", "scale": 1.0, "seed": null, "mode": "fan_avg"}}, "name": "conv5_block29_1_conv", "bias_regularizer": null, "bias_constraint": null, "activation": "linear", "trainable": true, "data_format": "channels_last", "padding": "valid", "strides": [1, 1], "dilation_rate": [1, 1], "kernel_regularizer": null, "filters": 128, "bias_initializer": {"class_name": "Zeros", "config": {}}, "use_bias": false, "activity_regularizer": null, "kernel_size": [1, 1]}, "inbound_nodes": [[["conv5_block29_0_relu", 0, 0, {}]]], "name": "conv5_block29_1_conv"}, {"class_name": "BatchNormalization", "config": {"beta_constraint": null, "gamma_initializer": {"class_name": "Ones", "config": {}}, "moving_mean_initializer": {"class_name": "Zeros", "config": {}}, "name": "conv5_block29_1_bn", "epsilon": 1.001e-05, "trainable": true, "moving_variance_initializer": {"class_name": "Ones", "config": {}}, "beta_initializer": {"class_name": "Zeros", "config": {}}, "scale": true, "axis": 3, "gamma_constraint": null, "gamma_regularizer": null, "beta_regularizer": null, "momentum": 0.99, "center": true}, "inbound_nodes": [[["conv5_block29_1_conv", 0, 0, {}]]], "name": "conv5_block29_1_bn"}, {"class_name": "Activation", "config": {"activation": "relu", "trainable": true, "name": "conv5_block29_1_relu"}, "inbound_nodes": [[["conv5_block29_1_bn", 0, 0, {}]]], "name": "conv5_block29_1_relu"}, {"class_name": "Conv2D", "config": {"kernel_constraint": null, "kernel_initializer": {"class_name": "VarianceScaling", "config": {"distribution": "uniform", "scale": 1.0, "seed": null, "mode": "fan_avg"}}, "name": "conv5_block29_2_conv", "bias_regularizer": null, "bias_constraint": null, "activation": "linear", "trainable": true, "data_format": "channels_last", "padding": "same", "strides": [1, 1], "dilation_rate": [1, 1], "kernel_regularizer": null, "filters": 32, "bias_initializer": {"class_name": "Zeros", "config": {}}, "use_bias": false, "activity_regularizer": null, "kernel_size": [3, 3]}, "inbound_nodes": [[["conv5_block29_1_relu", 0, 0, {}]]], "name": "conv5_block29_2_conv"}, {"class_name": "Concatenate", "config": {"trainable": true, "name": "conv5_block29_concat", "axis": 3}, "inbound_nodes": [[["conv5_block28_concat", 0, 0, {}], ["conv5_block29_2_conv", 0, 0, {}]]], "name": "conv5_block29_concat"}, {"class_name": "BatchNormalization", "config": {"beta_constraint": null, "gamma_initializer": {"class_name": "Ones", "config": {}}, "moving_mean_initializer": {"class_name": "Zeros", "config": {}}, "name": "conv5_block30_0_bn", "epsilon": 1.001e-05, "trainable": true, "moving_variance_initializer": {"class_name": "Ones", "config": {}}, "beta_initializer": {"class_name": "Zeros", "config": {}}, "scale": true, "axis": 3, "gamma_constraint": null, "gamma_regularizer": null, "beta_regularizer": null, "momentum": 0.99, "center": true}, "inbound_nodes": [[["conv5_block29_concat", 0, 0, {}]]], "name": "conv5_block30_0_bn"}, {"class_name": "Activation", "config": {"activation": "relu", "trainable": true, "name": "conv5_block30_0_relu"}, "inbound_nodes": [[["conv5_block30_0_bn", 0, 0, {}]]], "name": "conv5_block30_0_relu"}, {"class_name": "Conv2D", "config": {"kernel_constraint": null, "kernel_initializer": {"class_name": "VarianceScaling", "config": {"distribution": "uniform", "scale": 1.0, "seed": null, "mode": "fan_avg"}}, "name": "conv5_block30_1_conv", "bias_regularizer": null, "bias_constraint": null, "activation": "linear", "trainable": true, "data_format": "channels_last", "padding": "valid", "strides": [1, 1], "dilation_rate": [1, 1], "kernel_regularizer": null, "filters": 128, "bias_initializer": {"class_name": "Zeros", "config": {}}, "use_bias": false, "activity_regularizer": null, "kernel_size": [1, 1]}, "inbound_nodes": [[["conv5_block30_0_relu", 0, 0, {}]]], "name": "conv5_block30_1_conv"}, {"class_name": "BatchNormalization", "config": {"beta_constraint": null, "gamma_initializer": {"class_name": "Ones", "config": {}}, "moving_mean_initializer": {"class_name": "Zeros", "config": {}}, "name": "conv5_block30_1_bn", "epsilon": 1.001e-05, "trainable": true, "moving_variance_initializer": {"class_name": "Ones", "config": {}}, "beta_initializer": {"class_name": "Zeros", "config": {}}, "scale": true, "axis": 3, "gamma_constraint": null, "gamma_regularizer": null, "beta_regularizer": null, "momentum": 0.99, "center": true}, "inbound_nodes": [[["conv5_block30_1_conv", 0, 0, {}]]], "name": "conv5_block30_1_bn"}, {"class_name": "Activation", "config": {"activation": "relu", "trainable": true, "name": "conv5_block30_1_relu"}, "inbound_nodes": [[["conv5_block30_1_bn", 0, 0, {}]]], "name": "conv5_block30_1_relu"}, {"class_name": "Conv2D", "config": {"kernel_constraint": null, "kernel_initializer": {"class_name": "VarianceScaling", "config": {"distribution": "uniform", "scale": 1.0, "seed": null, "mode": "fan_avg"}}, "name": "conv5_block30_2_conv", "bias_regularizer": null, "bias_constraint": null, "activation": "linear", "trainable": true, "data_format": "channels_last", "padding": "same", "strides": [1, 1], "dilation_rate": [1, 1], "kernel_regularizer": null, "filters": 32, "bias_initializer": {"class_name": "Zeros", "config": {}}, "use_bias": false, "activity_regularizer": null, "kernel_size": [3, 3]}, "inbound_nodes": [[["conv5_block30_1_relu", 0, 0, {}]]], "name": "conv5_block30_2_conv"}, {"class_name": "Concatenate", "config": {"trainable": true, "name": "conv5_block30_concat", "axis": 3}, "inbound_nodes": [[["conv5_block29_concat", 0, 0, {}], ["conv5_block30_2_conv", 0, 0, {}]]], "name": "conv5_block30_concat"}, {"class_name": "BatchNormalization", "config": {"beta_constraint": null, "gamma_initializer": {"class_name": "Ones", "config": {}}, "moving_mean_initializer": {"class_name": "Zeros", "config": {}}, "name": "conv5_block31_0_bn", "epsilon": 1.001e-05, "trainable": true, "moving_variance_initializer": {"class_name": "Ones", "config": {}}, "beta_initializer": {"class_name": "Zeros", "config": {}}, "scale": true, "axis": 3, "gamma_constraint": null, "gamma_regularizer": null, "beta_regularizer": null, "momentum": 0.99, "center": true}, "inbound_nodes": [[["conv5_block30_concat", 0, 0, {}]]], "name": "conv5_block31_0_bn"}, {"class_name": "Activation", "config": {"activation": "relu", "trainable": true, "name": "conv5_block31_0_relu"}, "inbound_nodes": [[["conv5_block31_0_bn", 0, 0, {}]]], "name": "conv5_block31_0_relu"}, {"class_name": "Conv2D", "config": {"kernel_constraint": null, "kernel_initializer": {"class_name": "VarianceScaling", "config": {"distribution": "uniform", "scale": 1.0, "seed": null, "mode": "fan_avg"}}, "name": "conv5_block31_1_conv", "bias_regularizer": null, "bias_constraint": null, "activation": "linear", "trainable": true, "data_format": "channels_last", "padding": "valid", "strides": [1, 1], "dilation_rate": [1, 1], "kernel_regularizer": null, "filters": 128, "bias_initializer": {"class_name": "Zeros", "config": {}}, "use_bias": false, "activity_regularizer": null, "kernel_size": [1, 1]}, "inbound_nodes": [[["conv5_block31_0_relu", 0, 0, {}]]], "name": "conv5_block31_1_conv"}, {"class_name": "BatchNormalization", "config": {"beta_constraint": null, "gamma_initializer": {"class_name": "Ones", "config": {}}, "moving_mean_initializer": {"class_name": "Zeros", "config": {}}, "name": "conv5_block31_1_bn", "epsilon": 1.001e-05, "trainable": true, "moving_variance_initializer": {"class_name": "Ones", "config": {}}, "beta_initializer": {"class_name": "Zeros", "config": {}}, "scale": true, "axis": 3, "gamma_constraint": null, "gamma_regularizer": null, "beta_regularizer": null, "momentum": 0.99, "center": true}, "inbound_nodes": [[["conv5_block31_1_conv", 0, 0, {}]]], "name": "conv5_block31_1_bn"}, {"class_name": "Activation", "config": {"activation": "relu", "trainable": true, "name": "conv5_block31_1_relu"}, "inbound_nodes": [[["conv5_block31_1_bn", 0, 0, {}]]], "name": "conv5_block31_1_relu"}, {"class_name": "Conv2D", "config": {"kernel_constraint": null, "kernel_initializer": {"class_name": "VarianceScaling", "config": {"distribution": "uniform", "scale": 1.0, "seed": null, "mode": "fan_avg"}}, "name": "conv5_block31_2_conv", "bias_regularizer": null, "bias_constraint": null, "activation": "linear", "trainable": true, "data_format": "channels_last", "padding": "same", "strides": [1, 1], "dilation_rate": [1, 1], "kernel_regularizer": null, "filters": 32, "bias_initializer": {"class_name": "Zeros", "config": {}}, "use_bias": false, "activity_regularizer": null, "kernel_size": [3, 3]}, "inbound_nodes": [[["conv5_block31_1_relu", 0, 0, {}]]], "name": "conv5_block31_2_conv"}, {"class_name": "Concatenate", "config": {"trainable": true, "name": "conv5_block31_concat", "axis": 3}, "inbound_nodes": [[["conv5_block30_concat", 0, 0, {}], ["conv5_block31_2_conv", 0, 0, {}]]], "name": "conv5_block31_concat"}, {"class_name": "BatchNormalization", "config": {"beta_constraint": null, "gamma_initializer": {"class_name": "Ones", "config": {}}, "moving_mean_initializer": {"class_name": "Zeros", "config": {}}, "name": "conv5_block32_0_bn", "epsilon": 1.001e-05, "trainable": true, "moving_variance_initializer": {"class_name": "Ones", "config": {}}, "beta_initializer": {"class_name": "Zeros", "config": {}}, "scale": true, "axis": 3, "gamma_constraint": null, "gamma_regularizer": null, "beta_regularizer": null, "momentum": 0.99, "center": true}, "inbound_nodes": [[["conv5_block31_concat", 0, 0, {}]]], "name": "conv5_block32_0_bn"}, {"class_name": "Activation", "config": {"activation": "relu", "trainable": true, "name": "conv5_block32_0_relu"}, "inbound_nodes": [[["conv5_block32_0_bn", 0, 0, {}]]], "name": "conv5_block32_0_relu"}, {"class_name": "Conv2D", "config": {"kernel_constraint": null, "kernel_initializer": {"class_name": "VarianceScaling", "config": {"distribution": "uniform", "scale": 1.0, "seed": null, "mode": "fan_avg"}}, "name": "conv5_block32_1_conv", "bias_regularizer": null, "bias_constraint": null, "activation": "linear", "trainable": true, "data_format": "channels_last", "padding": "valid", "strides": [1, 1], "dilation_rate": [1, 1], "kernel_regularizer": null, "filters": 128, "bias_initializer": {"class_name": "Zeros", "config": {}}, "use_bias": false, "activity_regularizer": null, "kernel_size": [1, 1]}, "inbound_nodes": [[["conv5_block32_0_relu", 0, 0, {}]]], "name": "conv5_block32_1_conv"}, {"class_name": "BatchNormalization", "config": {"beta_constraint": null, "gamma_initializer": {"class_name": "Ones", "config": {}}, "moving_mean_initializer": {"class_name": "Zeros", "config": {}}, "name": "conv5_block32_1_bn", "epsilon": 1.001e-05, "trainable": true, "moving_variance_initializer": {"class_name": "Ones", "config": {}}, "beta_initializer": {"class_name": "Zeros", "config": {}}, "scale": true, "axis": 3, "gamma_constraint": null, "gamma_regularizer": null, "beta_regularizer": null, "momentum": 0.99, "center": true}, "inbound_nodes": [[["conv5_block32_1_conv", 0, 0, {}]]], "name": "conv5_block32_1_bn"}, {"class_name": "Activation", "config": {"activation": "relu", "trainable": true, "name": "conv5_block32_1_relu"}, "inbound_nodes": [[["conv5_block32_1_bn", 0, 0, {}]]], "name": "conv5_block32_1_relu"}, {"class_name": "Conv2D", "config": {"kernel_constraint": null, "kernel_initializer": {"class_name": "VarianceScaling", "config": {"distribution": "uniform", "scale": 1.0, "seed": null, "mode": "fan_avg"}}, "name": "conv5_block32_2_conv", "bias_regularizer": null, "bias_constraint": null, "activation": "linear", "trainable": true, "data_format": "channels_last", "padding": "same", "strides": [1, 1], "dilation_rate": [1, 1], "kernel_regularizer": null, "filters": 32, "bias_initializer": {"class_name": "Zeros", "config": {}}, "use_bias": false, "activity_regularizer": null, "kernel_size": [3, 3]}, "inbound_nodes": [[["conv5_block32_1_relu", 0, 0, {}]]], "name": "conv5_block32_2_conv"}, {"class_name": "Concatenate", "config": {"trainable": true, "name": "conv5_block32_concat", "axis": 3}, "inbound_nodes": [[["conv5_block31_concat", 0, 0, {}], ["conv5_block32_2_conv", 0, 0, {}]]], "name": "conv5_block32_concat"}, {"class_name": "BatchNormalization", "config": {"beta_constraint": null, "gamma_initializer": {"class_name": "Ones", "config": {}}, "moving_mean_initializer": {"class_name": "Zeros", "config": {}}, "name": "bn", "epsilon": 1.001e-05, "trainable": true, "moving_variance_initializer": {"class_name": "Ones", "config": {}}, "beta_initializer": {"class_name": "Zeros", "config": {}}, "scale": true, "axis": 3, "gamma_constraint": null, "gamma_regularizer": null, "beta_regularizer": null, "momentum": 0.99, "center": true}, "inbound_nodes": [[["conv5_block32_concat", 0, 0, {}]]], "name": "bn"}, {"class_name": "Conv2DTranspose", "config": {"output_padding": null, "kernel_initializer": {"class_name": "VarianceScaling", "config": {"distribution": "uniform", "scale": 1.0, "seed": null, "mode": "fan_avg"}}, "name": "conv2d_transpose_1", "bias_regularizer": null, "bias_constraint": null, "activation": "linear", "trainable": true, "data_format": "channels_last", "padding": "same", "strides": [2, 2], "kernel_regularizer": null, "filters": 128, "bias_initializer": {"class_name": "Zeros", "config": {}}, "kernel_constraint": null, "use_bias": true, "activity_regularizer": null, "kernel_size": [3, 3]}, "inbound_nodes": [[["bn", 0, 0, {}]]], "name": "conv2d_transpose_1"}, {"class_name": "BatchNormalization", "config": {"beta_constraint": null, "gamma_initializer": {"class_name": "Ones", "config": {}}, "moving_mean_initializer": {"class_name": "Zeros", "config": {}}, "name": "batch_normalization_1", "epsilon": 0.001, "trainable": true, "moving_variance_initializer": {"class_name": "Ones", "config": {}}, "beta_initializer": {"class_name": "Zeros", "config": {}}, "scale": true, "axis": -1, "gamma_constraint": null, "gamma_regularizer": null, "beta_regularizer": null, "momentum": 0.99, "center": true}, "inbound_nodes": [[["conv2d_transpose_1", 0, 0, {}]]], "name": "batch_normalization_1"}, {"class_name": "Conv2D", "config": {"kernel_constraint": null, "kernel_initializer": {"class_name": "VarianceScaling", "config": {"distribution": "uniform", "scale": 1.0, "seed": null, "mode": "fan_avg"}}, "name": "conv2d_1", "bias_regularizer": null, "bias_constraint": null, "activation": "linear", "trainable": true, "data_format": "channels_last", "padding": "same", "strides": [1, 1], "dilation_rate": [1, 1], "kernel_regularizer": null, "filters": 128, "bias_initializer": {"class_name": "Zeros", "config": {}}, "use_bias": true, "activity_regularizer": null, "kernel_size": [1, 1]}, "inbound_nodes": [[["pool4_relu", 0, 0, {}]]], "name": "conv2d_1"}, {"class_name": "GaussianNoise", "config": {"trainable": true, "name": "gaussian_noise_1", "stddev": 0.001}, "inbound_nodes": [[["batch_normalization_1", 0, 0, {}]]], "name": "gaussian_noise_1"}, {"class_name": "BatchNormalization", "config": {"beta_constraint": null, "gamma_initializer": {"class_name": "Ones", "config": {}}, "moving_mean_initializer": {"class_name": "Zeros", "config": {}}, "name": "batch_normalization_2", "epsilon": 0.001, "trainable": true, "moving_variance_initializer": {"class_name": "Ones", "config": {}}, "beta_initializer": {"class_name": "Zeros", "config": {}}, "scale": true, "axis": -1, "gamma_constraint": null, "gamma_regularizer": null, "beta_regularizer": null, "momentum": 0.99, "center": true}, "inbound_nodes": [[["conv2d_1", 0, 0, {}]]], "name": "batch_normalization_2"}, {"class_name": "Activation", "config": {"activation": "elu", "trainable": true, "name": "activation_1"}, "inbound_nodes": [[["gaussian_noise_1", 0, 0, {}]]], "name": "activation_1"}, {"class_name": "Activation", "config": {"activation": "elu", "trainable": true, "name": "activation_2"}, "inbound_nodes": [[["batch_normalization_2", 0, 0, {}]]], "name": "activation_2"}, {"class_name": "Concatenate", "config": {"trainable": true, "name": "concatenate_1", "axis": 3}, "inbound_nodes": [[["activation_1", 0, 0, {}], ["activation_2", 0, 0, {}]]], "name": "concatenate_1"}, {"class_name": "SpatialDropout2D", "config": {"rate": 0.5, "noise_shape": null, "trainable": true, "seed": null, "name": "spatial_dropout2d_1"}, "inbound_nodes": [[["concatenate_1", 0, 0, {}]]], "name": "spatial_dropout2d_1"}, {"class_name": "Conv2D", "config": {"kernel_constraint": null, "kernel_initializer": {"class_name": "VarianceScaling", "config": {"distribution": "uniform", "scale": 1.0, "seed": null, "mode": "fan_avg"}}, "name": "up1a", "bias_regularizer": null, "bias_constraint": null, "activation": "linear", "trainable": true, "data_format": "channels_last", "padding": "same", "strides": [1, 1], "dilation_rate": [1, 1], "kernel_regularizer": null, "filters": 128, "bias_initializer": {"class_name": "Zeros", "config": {}}, "use_bias": true, "activity_regularizer": null, "kernel_size": [3, 3]}, "inbound_nodes": [[["spatial_dropout2d_1", 0, 0, {}]]], "name": "up1a"}, {"class_name": "BatchNormalization", "config": {"beta_constraint": null, "gamma_initializer": {"class_name": "Ones", "config": {}}, "moving_mean_initializer": {"class_name": "Zeros", "config": {}}, "name": "batch_normalization_3", "epsilon": 0.001, "trainable": true, "moving_variance_initializer": {"class_name": "Ones", "config": {}}, "beta_initializer": {"class_name": "Zeros", "config": {}}, "scale": true, "axis": -1, "gamma_constraint": null, "gamma_regularizer": null, "beta_regularizer": null, "momentum": 0.99, "center": true}, "inbound_nodes": [[["up1a", 0, 0, {}]]], "name": "batch_normalization_3"}, {"class_name": "GaussianNoise", "config": {"trainable": true, "name": "gaussian_noise_2", "stddev": 0.001}, "inbound_nodes": [[["batch_normalization_3", 0, 0, {}]]], "name": "gaussian_noise_2"}, {"class_name": "Activation", "config": {"activation": "elu", "trainable": true, "name": "activation_3"}, "inbound_nodes": [[["gaussian_noise_2", 0, 0, {}]]], "name": "activation_3"}, {"class_name": "Conv2D", "config": {"kernel_constraint": null, "kernel_initializer": {"class_name": "VarianceScaling", "config": {"distribution": "uniform", "scale": 1.0, "seed": null, "mode": "fan_avg"}}, "name": "up1b", "bias_regularizer": null, "bias_constraint": null, "activation": "linear", "trainable": true, "data_format": "channels_last", "padding": "same", "strides": [1, 1], "dilation_rate": [1, 1], "kernel_regularizer": null, "filters": 128, "bias_initializer": {"class_name": "Zeros", "config": {}}, "use_bias": true, "activity_regularizer": null, "kernel_size": [3, 3]}, "inbound_nodes": [[["activation_3", 0, 0, {}]]], "name": "up1b"}, {"class_name": "BatchNormalization", "config": {"beta_constraint": null, "gamma_initializer": {"class_name": "Ones", "config": {}}, "moving_mean_initializer": {"class_name": "Zeros", "config": {}}, "name": "batch_normalization_4", "epsilon": 0.001, "trainable": true, "moving_variance_initializer": {"class_name": "Ones", "config": {}}, "beta_initializer": {"class_name": "Zeros", "config": {}}, "scale": true, "axis": -1, "gamma_constraint": null, "gamma_regularizer": null, "beta_regularizer": null, "momentum": 0.99, "center": true}, "inbound_nodes": [[["up1b", 0, 0, {}]]], "name": "batch_normalization_4"}, {"class_name": "GaussianNoise", "config": {"trainable": true, "name": "gaussian_noise_3", "stddev": 0.001}, "inbound_nodes": [[["batch_normalization_4", 0, 0, {}]]], "name": "gaussian_noise_3"}, {"class_name": "Activation", "config": {"activation": "elu", "trainable": true, "name": "activation_4"}, "inbound_nodes": [[["gaussian_noise_3", 0, 0, {}]]], "name": "activation_4"}, {"class_name": "Conv2DTranspose", "config": {"output_padding": null, "kernel_initializer": {"class_name": "VarianceScaling", "config": {"distribution": "uniform", "scale": 1.0, "seed": null, "mode": "fan_avg"}}, "name": "conv2d_transpose_2", "bias_regularizer": null, "bias_constraint": null, "activation": "linear", "trainable": true, "data_format": "channels_last", "padding": "same", "strides": [2, 2], "kernel_regularizer": null, "filters": 64, "bias_initializer": {"class_name": "Zeros", "config": {}}, "kernel_constraint": null, "use_bias": true, "activity_regularizer": null, "kernel_size": [3, 3]}, "inbound_nodes": [[["activation_4", 0, 0, {}]]], "name": "conv2d_transpose_2"}, {"class_name": "BatchNormalization", "config": {"beta_constraint": null, "gamma_initializer": {"class_name": "Ones", "config": {}}, "moving_mean_initializer": {"class_name": "Zeros", "config": {}}, "name": "batch_normalization_5", "epsilon": 0.001, "trainable": true, "moving_variance_initializer": {"class_name": "Ones", "config": {}}, "beta_initializer": {"class_name": "Zeros", "config": {}}, "scale": true, "axis": -1, "gamma_constraint": null, "gamma_regularizer": null, "beta_regularizer": null, "momentum": 0.99, "center": true}, "inbound_nodes": [[["conv2d_transpose_2", 0, 0, {}]]], "name": "batch_normalization_5"}, {"class_name": "Conv2D", "config": {"kernel_constraint": null, "kernel_initializer": {"class_name": "VarianceScaling", "config": {"distribution": "uniform", "scale": 1.0, "seed": null, "mode": "fan_avg"}}, "name": "conv2d_2", "bias_regularizer": null, "bias_constraint": null, "activation": "linear", "trainable": true, "data_format": "channels_last", "padding": "same", "strides": [1, 1], "dilation_rate": [1, 1], "kernel_regularizer": null, "filters": 64, "bias_initializer": {"class_name": "Zeros", "config": {}}, "use_bias": true, "activity_regularizer": null, "kernel_size": [1, 1]}, "inbound_nodes": [[["pool3_relu", 0, 0, {}]]], "name": "conv2d_2"}, {"class_name": "GaussianNoise", "config": {"trainable": true, "name": "gaussian_noise_4", "stddev": 0.001}, "inbound_nodes": [[["batch_normalization_5", 0, 0, {}]]], "name": "gaussian_noise_4"}, {"class_name": "BatchNormalization", "config": {"beta_constraint": null, "gamma_initializer": {"class_name": "Ones", "config": {}}, "moving_mean_initializer": {"class_name": "Zeros", "config": {}}, "name": "batch_normalization_6", "epsilon": 0.001, "trainable": true, "moving_variance_initializer": {"class_name": "Ones", "config": {}}, "beta_initializer": {"class_name": "Zeros", "config": {}}, "scale": true, "axis": -1, "gamma_constraint": null, "gamma_regularizer": null, "beta_regularizer": null, "momentum": 0.99, "center": true}, "inbound_nodes": [[["conv2d_2", 0, 0, {}]]], "name": "batch_normalization_6"}, {"class_name": "Activation", "config": {"activation": "elu", "trainable": true, "name": "activation_5"}, "inbound_nodes": [[["gaussian_noise_4", 0, 0, {}]]], "name": "activation_5"}, {"class_name": "Activation", "config": {"activation": "elu", "trainable": true, "name": "activation_6"}, "inbound_nodes": [[["batch_normalization_6", 0, 0, {}]]], "name": "activation_6"}, {"class_name": "Concatenate", "config": {"trainable": true, "name": "concatenate_2", "axis": 3}, "inbound_nodes": [[["activation_5", 0, 0, {}], ["activation_6", 0, 0, {}]]], "name": "concatenate_2"}, {"class_name": "Conv2D", "config": {"kernel_constraint": null, "kernel_initializer": {"class_name": "VarianceScaling", "config": {"distribution": "uniform", "scale": 1.0, "seed": null, "mode": "fan_avg"}}, "name": "up2a", "bias_regularizer": null, "bias_constraint": null, "activation": "linear", "trainable": true, "data_format": "channels_last", "padding": "same", "strides": [1, 1], "dilation_rate": [1, 1], "kernel_regularizer": null, "filters": 64, "bias_initializer": {"class_name": "Zeros", "config": {}}, "use_bias": true, "activity_regularizer": null, "kernel_size": [3, 3]}, "inbound_nodes": [[["concatenate_2", 0, 0, {}]]], "name": "up2a"}, {"class_name": "BatchNormalization", "config": {"beta_constraint": null, "gamma_initializer": {"class_name": "Ones", "config": {}}, "moving_mean_initializer": {"class_name": "Zeros", "config": {}}, "name": "batch_normalization_7", "epsilon": 0.001, "trainable": true, "moving_variance_initializer": {"class_name": "Ones", "config": {}}, "beta_initializer": {"class_name": "Zeros", "config": {}}, "scale": true, "axis": -1, "gamma_constraint": null, "gamma_regularizer": null, "beta_regularizer": null, "momentum": 0.99, "center": true}, "inbound_nodes": [[["up2a", 0, 0, {}]]], "name": "batch_normalization_7"}, {"class_name": "GaussianNoise", "config": {"trainable": true, "name": "gaussian_noise_5", "stddev": 0.001}, "inbound_nodes": [[["batch_normalization_7", 0, 0, {}]]], "name": "gaussian_noise_5"}, {"class_name": "Activation", "config": {"activation": "elu", "trainable": true, "name": "activation_7"}, "inbound_nodes": [[["gaussian_noise_5", 0, 0, {}]]], "name": "activation_7"}, {"class_name": "Conv2D", "config": {"kernel_constraint": null, "kernel_initializer": {"class_name": "VarianceScaling", "config": {"distribution": "uniform", "scale": 1.0, "seed": null, "mode": "fan_avg"}}, "name": "up2b", "bias_regularizer": null, "bias_constraint": null, "activation": "linear", "trainable": true, "data_format": "channels_last", "padding": "same", "strides": [1, 1], "dilation_rate": [1, 1], "kernel_regularizer": null, "filters": 64, "bias_initializer": {"class_name": "Zeros", "config": {}}, "use_bias": true, "activity_regularizer": null, "kernel_size": [3, 3]}, "inbound_nodes": [[["activation_7", 0, 0, {}]]], "name": "up2b"}, {"class_name": "BatchNormalization", "config": {"beta_constraint": null, "gamma_initializer": {"class_name": "Ones", "config": {}}, "moving_mean_initializer": {"class_name": "Zeros", "config": {}}, "name": "batch_normalization_8", "epsilon": 0.001, "trainable": true, "moving_variance_initializer": {"class_name": "Ones", "config": {}}, "beta_initializer": {"class_name": "Zeros", "config": {}}, "scale": true, "axis": -1, "gamma_constraint": null, "gamma_regularizer": null, "beta_regularizer": null, "momentum": 0.99, "center": true}, "inbound_nodes": [[["up2b", 0, 0, {}]]], "name": "batch_normalization_8"}, {"class_name": "GaussianNoise", "config": {"trainable": true, "name": "gaussian_noise_6", "stddev": 0.001}, "inbound_nodes": [[["batch_normalization_8", 0, 0, {}]]], "name": "gaussian_noise_6"}, {"class_name": "Activation", "config": {"activation": "elu", "trainable": true, "name": "activation_8"}, "inbound_nodes": [[["gaussian_noise_6", 0, 0, {}]]], "name": "activation_8"}, {"class_name": "Conv2DTranspose", "config": {"output_padding": null, "kernel_initializer": {"class_name": "VarianceScaling", "config": {"distribution": "uniform", "scale": 1.0, "seed": null, "mode": "fan_avg"}}, "name": "conv2d_transpose_3", "bias_regularizer": null, "bias_constraint": null, "activation": "linear", "trainable": true, "data_format": "channels_last", "padding": "same", "strides": [2, 2], "kernel_regularizer": null, "filters": 32, "bias_initializer": {"class_name": "Zeros", "config": {}}, "kernel_constraint": null, "use_bias": true, "activity_regularizer": null, "kernel_size": [3, 3]}, "inbound_nodes": [[["activation_8", 0, 0, {}]]], "name": "conv2d_transpose_3"}, {"class_name": "BatchNormalization", "config": {"beta_constraint": null, "gamma_initializer": {"class_name": "Ones", "config": {}}, "moving_mean_initializer": {"class_name": "Zeros", "config": {}}, "name": "batch_normalization_9", "epsilon": 0.001, "trainable": true, "moving_variance_initializer": {"class_name": "Ones", "config": {}}, "beta_initializer": {"class_name": "Zeros", "config": {}}, "scale": true, "axis": -1, "gamma_constraint": null, "gamma_regularizer": null, "beta_regularizer": null, "momentum": 0.99, "center": true}, "inbound_nodes": [[["conv2d_transpose_3", 0, 0, {}]]], "name": "batch_normalization_9"}, {"class_name": "Conv2D", "config": {"kernel_constraint": null, "kernel_initializer": {"class_name": "VarianceScaling", "config": {"distribution": "uniform", "scale": 1.0, "seed": null, "mode": "fan_avg"}}, "name": "conv2d_3", "bias_regularizer": null, "bias_constraint": null, "activation": "linear", "trainable": true, "data_format": "channels_last", "padding": "same", "strides": [1, 1], "dilation_rate": [1, 1], "kernel_regularizer": null, "filters": 32, "bias_initializer": {"class_name": "Zeros", "config": {}}, "use_bias": true, "activity_regularizer": null, "kernel_size": [1, 1]}, "inbound_nodes": [[["pool2_relu", 0, 0, {}]]], "name": "conv2d_3"}, {"class_name": "GaussianNoise", "config": {"trainable": true, "name": "gaussian_noise_7", "stddev": 0.001}, "inbound_nodes": [[["batch_normalization_9", 0, 0, {}]]], "name": "gaussian_noise_7"}, {"class_name": "BatchNormalization", "config": {"beta_constraint": null, "gamma_initializer": {"class_name": "Ones", "config": {}}, "moving_mean_initializer": {"class_name": "Zeros", "config": {}}, "name": "batch_normalization_10", "epsilon": 0.001, "trainable": true, "moving_variance_initializer": {"class_name": "Ones", "config": {}}, "beta_initializer": {"class_name": "Zeros", "config": {}}, "scale": true, "axis": -1, "gamma_constraint": null, "gamma_regularizer": null, "beta_regularizer": null, "momentum": 0.99, "center": true}, "inbound_nodes": [[["conv2d_3", 0, 0, {}]]], "name": "batch_normalization_10"}, {"class_name": "Activation", "config": {"activation": "elu", "trainable": true, "name": "activation_9"}, "inbound_nodes": [[["gaussian_noise_7", 0, 0, {}]]], "name": "activation_9"}, {"class_name": "Activation", "config": {"activation": "elu", "trainable": true, "name": "activation_10"}, "inbound_nodes": [[["batch_normalization_10", 0, 0, {}]]], "name": "activation_10"}, {"class_name": "Concatenate", "config": {"trainable": true, "name": "concatenate_3", "axis": 3}, "inbound_nodes": [[["activation_9", 0, 0, {}], ["activation_10", 0, 0, {}]]], "name": "concatenate_3"}, {"class_name": "Conv2D", "config": {"kernel_constraint": null, "kernel_initializer": {"class_name": "VarianceScaling", "config": {"distribution": "uniform", "scale": 1.0, "seed": null, "mode": "fan_avg"}}, "name": "up3a", "bias_regularizer": null, "bias_constraint": null, "activation": "linear", "trainable": true, "data_format": "channels_last", "padding": "same", "strides": [1, 1], "dilation_rate": [1, 1], "kernel_regularizer": null, "filters": 32, "bias_initializer": {"class_name": "Zeros", "config": {}}, "use_bias": true, "activity_regularizer": null, "kernel_size": [3, 3]}, "inbound_nodes": [[["concatenate_3", 0, 0, {}]]], "name": "up3a"}, {"class_name": "BatchNormalization", "config": {"beta_constraint": null, "gamma_initializer": {"class_name": "Ones", "config": {}}, "moving_mean_initializer": {"class_name": "Zeros", "config": {}}, "name": "batch_normalization_11", "epsilon": 0.001, "trainable": true, "moving_variance_initializer": {"class_name": "Ones", "config": {}}, "beta_initializer": {"class_name": "Zeros", "config": {}}, "scale": true, "axis": -1, "gamma_constraint": null, "gamma_regularizer": null, "beta_regularizer": null, "momentum": 0.99, "center": true}, "inbound_nodes": [[["up3a", 0, 0, {}]]], "name": "batch_normalization_11"}, {"class_name": "GaussianNoise", "config": {"trainable": true, "name": "gaussian_noise_8", "stddev": 0.001}, "inbound_nodes": [[["batch_normalization_11", 0, 0, {}]]], "name": "gaussian_noise_8"}, {"class_name": "Activation", "config": {"activation": "elu", "trainable": true, "name": "activation_11"}, "inbound_nodes": [[["gaussian_noise_8", 0, 0, {}]]], "name": "activation_11"}, {"class_name": "Conv2D", "config": {"kernel_constraint": null, "kernel_initializer": {"class_name": "VarianceScaling", "config": {"distribution": "uniform", "scale": 1.0, "seed": null, "mode": "fan_avg"}}, "name": "up3b", "bias_regularizer": null, "bias_constraint": null, "activation": "linear", "trainable": true, "data_format": "channels_last", "padding": "same", "strides": [1, 1], "dilation_rate": [1, 1], "kernel_regularizer": null, "filters": 32, "bias_initializer": {"class_name": "Zeros", "config": {}}, "use_bias": true, "activity_regularizer": null, "kernel_size": [3, 3]}, "inbound_nodes": [[["activation_11", 0, 0, {}]]], "name": "up3b"}, {"class_name": "BatchNormalization", "config": {"beta_constraint": null, "gamma_initializer": {"class_name": "Ones", "config": {}}, "moving_mean_initializer": {"class_name": "Zeros", "config": {}}, "name": "batch_normalization_12", "epsilon": 0.001, "trainable": true, "moving_variance_initializer": {"class_name": "Ones", "config": {}}, "beta_initializer": {"class_name": "Zeros", "config": {}}, "scale": true, "axis": -1, "gamma_constraint": null, "gamma_regularizer": null, "beta_regularizer": null, "momentum": 0.99, "center": true}, "inbound_nodes": [[["up3b", 0, 0, {}]]], "name": "batch_normalization_12"}, {"class_name": "GaussianNoise", "config": {"trainable": true, "name": "gaussian_noise_9", "stddev": 0.001}, "inbound_nodes": [[["batch_normalization_12", 0, 0, {}]]], "name": "gaussian_noise_9"}, {"class_name": "Activation", "config": {"activation": "elu", "trainable": true, "name": "activation_12"}, "inbound_nodes": [[["gaussian_noise_9", 0, 0, {}]]], "name": "activation_12"}, {"class_name": "Conv2DTranspose", "config": {"output_padding": null, "kernel_initializer": {"class_name": "VarianceScaling", "config": {"distribution": "uniform", "scale": 1.0, "seed": null, "mode": "fan_avg"}}, "name": "conv2d_transpose_4", "bias_regularizer": null, "bias_constraint": null, "activation": "linear", "trainable": true, "data_format": "channels_last", "padding": "same", "strides": [2, 2], "kernel_regularizer": null, "filters": 16, "bias_initializer": {"class_name": "Zeros", "config": {}}, "kernel_constraint": null, "use_bias": true, "activity_regularizer": null, "kernel_size": [3, 3]}, "inbound_nodes": [[["activation_12", 0, 0, {}]]], "name": "conv2d_transpose_4"}, {"class_name": "BatchNormalization", "config": {"beta_constraint": null, "gamma_initializer": {"class_name": "Ones", "config": {}}, "moving_mean_initializer": {"class_name": "Zeros", "config": {}}, "name": "batch_normalization_13", "epsilon": 0.001, "trainable": true, "moving_variance_initializer": {"class_name": "Ones", "config": {}}, "beta_initializer": {"class_name": "Zeros", "config": {}}, "scale": true, "axis": -1, "gamma_constraint": null, "gamma_regularizer": null, "beta_regularizer": null, "momentum": 0.99, "center": true}, "inbound_nodes": [[["conv2d_transpose_4", 0, 0, {}]]], "name": "batch_normalization_13"}, {"class_name": "GaussianNoise", "config": {"trainable": true, "name": "gaussian_noise_10", "stddev": 0.001}, "inbound_nodes": [[["batch_normalization_13", 0, 0, {}]]], "name": "gaussian_noise_10"}, {"class_name": "Activation", "config": {"activation": "elu", "trainable": true, "name": "activation_13"}, "inbound_nodes": [[["gaussian_noise_10", 0, 0, {}]]], "name": "activation_13"}, {"class_name": "Conv2D", "config": {"kernel_constraint": null, "kernel_initializer": {"class_name": "VarianceScaling", "config": {"distribution": "uniform", "scale": 1.0, "seed": null, "mode": "fan_avg"}}, "name": "up4a", "bias_regularizer": null, "bias_constraint": null, "activation": "linear", "trainable": true, "data_format": "channels_last", "padding": "same", "strides": [1, 1], "dilation_rate": [1, 1], "kernel_regularizer": null, "filters": 16, "bias_initializer": {"class_name": "Zeros", "config": {}}, "use_bias": true, "activity_regularizer": null, "kernel_size": [3, 3]}, "inbound_nodes": [[["activation_13", 0, 0, {}]]], "name": "up4a"}, {"class_name": "BatchNormalization", "config": {"beta_constraint": null, "gamma_initializer": {"class_name": "Ones", "config": {}}, "moving_mean_initializer": {"class_name": "Zeros", "config": {}}, "name": "batch_normalization_14", "epsilon": 0.001, "trainable": true, "moving_variance_initializer": {"class_name": "Ones", "config": {}}, "beta_initializer": {"class_name": "Zeros", "config": {}}, "scale": true, "axis": -1, "gamma_constraint": null, "gamma_regularizer": null, "beta_regularizer": null, "momentum": 0.99, "center": true}, "inbound_nodes": [[["up4a", 0, 0, {}]]], "name": "batch_normalization_14"}, {"class_name": "GaussianNoise", "config": {"trainable": true, "name": "gaussian_noise_11", "stddev": 0.001}, "inbound_nodes": [[["batch_normalization_14", 0, 0, {}]]], "name": "gaussian_noise_11"}, {"class_name": "Activation", "config": {"activation": "elu", "trainable": true, "name": "activation_14"}, "inbound_nodes": [[["gaussian_noise_11", 0, 0, {}]]], "name": "activation_14"}, {"class_name": "Conv2D", "config": {"kernel_constraint": null, "kernel_initializer": {"class_name": "VarianceScaling", "config": {"distribution": "uniform", "scale": 1.0, "seed": null, "mode": "fan_avg"}}, "name": "up4b", "bias_regularizer": null, "bias_constraint": null, "activation": "linear", "trainable": true, "data_format": "channels_last", "padding": "same", "strides": [1, 1], "dilation_rate": [1, 1], "kernel_regularizer": null, "filters": 16, "bias_initializer": {"class_name": "Zeros", "config": {}}, "use_bias": true, "activity_regularizer": null, "kernel_size": [3, 3]}, "inbound_nodes": [[["activation_14", 0, 0, {}]]], "name": "up4b"}, {"class_name": "BatchNormalization", "config": {"beta_constraint": null, "gamma_initializer": {"class_name": "Ones", "config": {}}, "moving_mean_initializer": {"class_name": "Zeros", "config": {}}, "name": "batch_normalization_15", "epsilon": 0.001, "trainable": true, "moving_variance_initializer": {"class_name": "Ones", "config": {}}, "beta_initializer": {"class_name": "Zeros", "config": {}}, "scale": true, "axis": -1, "gamma_constraint": null, "gamma_regularizer": null, "beta_regularizer": null, "momentum": 0.99, "center": true}, "inbound_nodes": [[["up4b", 0, 0, {}]]], "name": "batch_normalization_15"}, {"class_name": "GaussianNoise", "config": {"trainable": true, "name": "gaussian_noise_12", "stddev": 0.001}, "inbound_nodes": [[["batch_normalization_15", 0, 0, {}]]], "name": "gaussian_noise_12"}, {"class_name": "Activation", "config": {"activation": "elu", "trainable": true, "name": "activation_15"}, "inbound_nodes": [[["gaussian_noise_12", 0, 0, {}]]], "name": "activation_15"}, {"class_name": "Conv2DTranspose", "config": {"output_padding": null, "kernel_initializer": {"class_name": "VarianceScaling", "config": {"distribution": "uniform", "scale": 1.0, "seed": null, "mode": "fan_avg"}}, "name": "conv2d_transpose_5", "bias_regularizer": null, "bias_constraint": null, "activation": "linear", "trainable": true, "data_format": "channels_last", "padding": "same", "strides": [2, 2], "kernel_regularizer": null, "filters": 8, "bias_initializer": {"class_name": "Zeros", "config": {}}, "kernel_constraint": null, "use_bias": true, "activity_regularizer": null, "kernel_size": [3, 3]}, "inbound_nodes": [[["activation_15", 0, 0, {}]]], "name": "conv2d_transpose_5"}, {"class_name": "BatchNormalization", "config": {"beta_constraint": null, "gamma_initializer": {"class_name": "Ones", "config": {}}, "moving_mean_initializer": {"class_name": "Zeros", "config": {}}, "name": "batch_normalization_16", "epsilon": 0.001, "trainable": true, "moving_variance_initializer": {"class_name": "Ones", "config": {}}, "beta_initializer": {"class_name": "Zeros", "config": {}}, "scale": true, "axis": -1, "gamma_constraint": null, "gamma_regularizer": null, "beta_regularizer": null, "momentum": 0.99, "center": true}, "inbound_nodes": [[["conv2d_transpose_5", 0, 0, {}]]], "name": "batch_normalization_16"}, {"class_name": "GaussianNoise", "config": {"trainable": true, "name": "gaussian_noise_13", "stddev": 0.001}, "inbound_nodes": [[["batch_normalization_16", 0, 0, {}]]], "name": "gaussian_noise_13"}, {"class_name": "Activation", "config": {"activation": "elu", "trainable": true, "name": "activation_16"}, "inbound_nodes": [[["gaussian_noise_13", 0, 0, {}]]], "name": "activation_16"}, {"class_name": "Conv2D", "config": {"kernel_constraint": null, "kernel_initializer": {"class_name": "VarianceScaling", "config": {"distribution": "uniform", "scale": 1.0, "seed": null, "mode": "fan_avg"}}, "name": "up5a", "bias_regularizer": null, "bias_constraint": null, "activation": "linear", "trainable": true, "data_format": "channels_last", "padding": "same", "strides": [1, 1], "dilation_rate": [1, 1], "kernel_regularizer": null, "filters": 8, "bias_initializer": {"class_name": "Zeros", "config": {}}, "use_bias": true, "activity_regularizer": null, "kernel_size": [3, 3]}, "inbound_nodes": [[["activation_16", 0, 0, {}]]], "name": "up5a"}, {"class_name": "BatchNormalization", "config": {"beta_constraint": null, "gamma_initializer": {"class_name": "Ones", "config": {}}, "moving_mean_initializer": {"class_name": "Zeros", "config": {}}, "name": "batch_normalization_17", "epsilon": 0.001, "trainable": true, "moving_variance_initializer": {"class_name": "Ones", "config": {}}, "beta_initializer": {"class_name": "Zeros", "config": {}}, "scale": true, "axis": -1, "gamma_constraint": null, "gamma_regularizer": null, "beta_regularizer": null, "momentum": 0.99, "center": true}, "inbound_nodes": [[["up5a", 0, 0, {}]]], "name": "batch_normalization_17"}, {"class_name": "Activation", "config": {"activation": "elu", "trainable": true, "name": "activation_17"}, "inbound_nodes": [[["batch_normalization_17", 0, 0, {}]]], "name": "activation_17"}, {"class_name": "Conv2D", "config": {"kernel_constraint": null, "kernel_initializer": {"class_name": "VarianceScaling", "config": {"distribution": "uniform", "scale": 1.0, "seed": null, "mode": "fan_avg"}}, "name": "up5b", "bias_regularizer": null, "bias_constraint": null, "activation": "linear", "trainable": true, "data_format": "channels_last", "padding": "same", "strides": [1, 1], "dilation_rate": [1, 1], "kernel_regularizer": null, "filters": 8, "bias_initializer": {"class_name": "Zeros", "config": {}}, "use_bias": true, "activity_regularizer": null, "kernel_size": [3, 3]}, "inbound_nodes": [[["activation_17", 0, 0, {}]]], "name": "up5b"}, {"class_name": "BatchNormalization", "config": {"beta_constraint": null, "gamma_initializer": {"class_name": "Ones", "config": {}}, "moving_mean_initializer": {"class_name": "Zeros", "config": {}}, "name": "batch_normalization_18", "epsilon": 0.001, "trainable": true, "moving_variance_initializer": {"class_name": "Ones", "config": {}}, "beta_initializer": {"class_name": "Zeros", "config": {}}, "scale": true, "axis": -1, "gamma_constraint": null, "gamma_regularizer": null, "beta_regularizer": null, "momentum": 0.99, "center": true}, "inbound_nodes": [[["up5b", 0, 0, {}]]], "name": "batch_normalization_18"}, {"class_name": "Activation", "config": {"activation": "elu", "trainable": true, "name": "activation_18"}, "inbound_nodes": [[["batch_normalization_18", 0, 0, {}]]], "name": "activation_18"}, {"class_name": "Conv2D", "config": {"kernel_constraint": null, "kernel_initializer": {"class_name": "VarianceScaling", "config": {"distribution": "uniform", "scale": 1.0, "seed": null, "mode": "fan_avg"}}, "name": "segout", "bias_regularizer": null, "bias_constraint": null, "activation": "linear", "trainable": true, "data_format": "channels_last", "padding": "same", "strides": [1, 1], "dilation_rate": [1, 1], "kernel_regularizer": null, "filters": 1, "bias_initializer": {"class_name": "Zeros", "config": {}}, "use_bias": true, "activity_regularizer": null, "kernel_size": [1, 1]}, "inbound_nodes": [[["activation_18", 0, 0, {}]]], "name": "segout"}, {"class_name": "Activation", "config": {"activation": "sigmoid", "trainable": true, "name": "activation_19"}, "inbound_nodes": [[["segout", 0, 0, {}]]], "name": "activation_19"}], "input_layers": [["input_1", 0, 0]], "output_layers": [["activation_19", 0, 0]], "name": "base_model"}, "backend": "tensorflow"}